trained_critic.pth (torch, 186625 bytes, 5 tensors)

fcs1.weight f4 [256, 48]
-0.016175248 -0.046522014 0.03181243 -0.1306632 -0.115519635 0.32260966 0.030132174 -0.16610211
-0.0238595 -0.03727819 -0.030880747 -0.072466925 0.13236886 0.23389386 -0.09432218 0.0041578813
-0.07810258 -0.06311681 0.09526946 -0.00042579146 0.36671308 -0.26242027 0.048348226 -0.062049076
-0.0672284 0.111691974 0.07419436 -0.04453966 0.124712 0.37132874 0.059080712 -0.03767379
-0.016966326 0.03580928 0.0764153 0.23827836 -0.10796731 0.14361916 0.029664379 0.2353425
0.05301878 0.01340168 -0.0062114946 0.08026653 -0.40125093 -0.25251558 -0.00225952 0.13057311
0.01839741 0.012429036 0.11066062 -0.03554372 -0.0068925153 -0.42850628 0.037763387 -0.10938903
0.025192635 0.007887194 -0.019119669 -0.12414772 0.015655829 -0.04966384 -0.06744795 -0.11308532
0.08012352 -0.062475003 0.010154333 0.13043809 0.13574664 0.4960394 0.052364163 0.21961612
0.024846425 -0.020248039 -0.17428547 -0.1770213 -0.04651326 -0.35947138 -0.1329056 -0.22426765
-0.072891735 -0.028777791 -0.07283288 -0.1933403 -0.047077633 0.0171855 -0.12937436 -0.16814397
-0.026579602 -0.04803084 -0.10832008 0.14883274 -0.08299103 0.5449856 -0.057244815 0.16595648
0.19727038 -0.23916152 0.18790706 -0.008412026 0.09829377 0.018607689 0.2013376 0.045685295
0.15405788 -0.19361205 0.07130819 0.04957001 -0.09912769 -0.07439949 0.048289876 0.067313224
0.10811642 -0.10894802 0.073169954 0.096723005 -0.24306868 -0.1683327 0.038181935 0.059137795
-0.007351493 0.08813572 -0.01984812 0.094509706 -0.12081453 -0.0011597517 -0.025027204 0.023564503
0.01589734 0.044871222 0.024641173 0.023591496 0.07044051 -0.095225975 -0.029799491 0.039897054
0.014334422 0.04280314 -0.051306535 0.022065938 0.29987973 -0.14270863 -0.07749193 0.03606583
0.09765635 0.0521115 0.02878107 0.017504988 0.05355216 -0.05512185 0.04665171 0.06738573
0.11994216 0.07516275 0.10569577 -0.03414671 0.09700781 0.14410219 0.07299236 -0.059998523
0.005480498 -0.04427084 -0.22026135 -0.031973366 0.047900144 0.5345196 -0.27436635 0.009805258
0.18049155 0.025523752 0.100133866 0.04957084 -0.06692489 -0.05533235 0.086905286 0.074124634
0.1180045 0.025520315 -0.07010887 0.0298499 -0.12905334 0.23906924 -0.10746708 -0.019935956
0.14032885 0.052423336 -0.1161412 -0.104423344 -0.07034192 0.51148516 -0.10860258 -0.09030377
-0.02775306 0.008394998 -0.001762547 0.16782142 -0.11937769 -0.18260232 -0.015252858 0.15617374
-0.054457545 0.0008474206 0.048594963 0.20761731 -0.12902324 -0.29314825 0.05052008 0.10726438
-0.10633922 0.056646325 -0.009311575 0.20149209 -0.010712628 -0.6255863 -0.01194582 0.16455735
-0.012481642 -0.11706562 0.03738588 0.10856119 0.18438964 -0.18129368 0.09573296 0.1553321
-0.0528103 -0.09233564 -0.0068429816 0.114080876 0.13361254 -0.3332417 0.055364262 0.14656447
-0.07209256 -0.12360389 -0.08174012 -0.1600786 0.025696738 -0.5752261 0.017471574 -0.163951
-0.07479218 0.013931667 -0.005112508 -0.10885622 -0.051328976 -0.31557143 -0.08393872 -0.055489797
-0.09967234 0.027748713 0.033821046 -0.13362266 -0.054566775 -0.067371026 -0.0093092825 -0.13068624
00000000: f481 84bc de8d 3ebd c04d 023d 93cc 05be
00000010: 8f95 ecbd 182d a53e c0d7 f63c ac16 2abe
00000020: 0075 c3bc 04b1 18bd 9ff9 fcbc 8a69 94bd
00000030: b48b 073e df81 6f3e fd2b c1bd d63e 883b
00000040: 3ff4 9fbd 6343 81bd a21c c33d c33c dfb9
00000050: d1c1 bb3e f35b 86be ca08 463d 2c27 7ebd
00000060: 0baf 89bd c3be e43d 36f3 973d 386f 36bd
00000070: 0169 ff3d cd1e be3e 9efe 713d d54f 1abd
00000080: f7fc 8abc c0ac 123d a07f 9c3d 3eff 733e
00000090: f71d ddbd e710 133e b602 f33c a0fd 703e
000000a0: 382a 593d b892 5b3c cb89 cbbb c762 a43d
000000b0: c370 cdbe b949 81be 7514 14bb f5b4 053e
000000c0: 2ab6 963c 28a3 4b3c 09a2 e23d 4b96 11bd
000000d0: 9cda e1bb 2d65 dbbe c8ad 1a3d 5b07 e0bd
000000e0: c960 ce3c 4a39 013c daa0 9cbc 2941 febd
000000f0: a740 803c 506c 4bbd 2722 8abd 4799 e7bd
00000100: cd17 a43d cae5 7fbd 5c5e 263c 9091 053e
00000110: 2b01 0b3e e0f8 fd3e ce7b 563d 0ce3 603e
00000120: bb8a cb3c 37df a5bc e477 32be 1245 35be
00000130: b084 3ebd a20c b8be 6818 08be 6ba6 65be
00000140: 4348 95bd 67bf ebbc 6829 95bd 00fb 45be
00000150: 7ad4 40bd 9bc8 8c3c b67a 04be ef2d 2cbe
00000160: 77bd d9bc fcbb 44bd ebd6 ddbd 9c67 183e
00000170: 33f7 a9bd 2d84 0b3f 8a79 6abd 7ff0 293e
00000180: 3f01 4a3e c2e6 74be b56a 403e 98d2 09bc
00000190: 3e4e c93d 276f 983c 722b 4e3e 8120 3b3d
000001a0: 59c1 1d3e 3d42 46be 070a 923d ec09 4b3d
000001b0: 7503 cbbd c35e 98bd 9bcb 453d 84db 893d
000001c0: 246c dd3d 2420 dfbd 21da 953d b616 c63d
000001d0: ffe6 78be 685f 2cbe a964 1c3d 793a 723d
000001e0: cbe4 f0bb 8080 b43d 8698 a2bc 4e8e c13d
000001f0: 9c6d f7bd cf02 98ba da05 cdbc 580a c13c
00000200: 233b 823c e3ca 373d 49dc c93c f442 c13c
00000210: 1d43 903d d605 c3bd 101e f4bc 186b 233d
00000220: ecda 6a3c 5852 2f3d cd26 52bd a0c3 b43c
00000230: d689 993e 3622 12be 17b4 9ebd c4b9 133d
00000240: 0d00 c83d de72 553d 47c6 eb3c 9f66 8f3c
00000250: 8259 5b3d 73c7 61bd dd15 3f3d 8801 8a3d
00000260: 3ca4 f53d eeee 993d 0677 d83d 6cdd 0bbd
00000270: 08ac c63d 868f 133e 057d 953d 03c1 75bd
00000280: c095 b33b 5755 35bd 318c 61be 81f6 02bd
00000290: f132 443d 47d6 083f bf79 8cbe 3ca6 203c
000002a0: c7d2 383e 3017 d13c fc12 cd3d cb0a 4b3d
000002b0: eb0f 89bd 2da4 62bd 66fb b13d a8ce 973d
000002c0: 58ac f13d fb0f d13c 3d95 8fbd c787 f43c
000002d0: 8f26 04be 91ce 743e b317 dcbd bb50 a3bc
000002e0: 5eb2 0f3e dab9 563d 70db edbd e8db d5bd
000002f0: 6d0f 90bd b1f0 023f 086b debd 2ff1 b8bd
00000300: 635a e3bc 2c8b 093c 4305 e7ba 61d9 2b3e
00000310: 4a7c f4bd 1afc 3abe 20e7 79bc 02ec 1f3e
00000320: e00e 5fbd 6f25 5e3a 830b 473d a299 543e
00000330: ab1e 04be 8717 96be 25ee 4e3d 6dad db3d
00000340: 61c8 d9bd fa05 683d 948f 18bc f153 4e3e
00000350: 0584 2fbc 6c26 20bf 67b8 43bc b981 283e
00000360: cd7f 4cbc 1ac0 efbd f021 193d 5455 de3d
00000370: a3d0 3c3e 0da5 39be a40f c43d 610f 1f3e
00000380: 9d4f 58bd 781a bdbd 173b e0bb 3ca3 e93d
00000390: bad1 083e a89e aabe a3c5 623d ff14 163e
000003a0: 44a5 93bd 0924 fdbd 5d67 a7bd a5eb 23be
000003b0: f781 d23c 0542 13bf 8c20 8f3c c5e2 27be
000003c0: a42c 99bd a641 643c d386 a7bb 03f0 debd
000003d0: 553e 52bd 9492 a1be 10e8 abbd 4549 63bd
000003e0: 0321 ccbd 4551 e33c f087 0a3d 61d4 08be
000003f0: 6981 5fbd d2f9 89bd f685 18bc 9dd2 05be

fcs1.bias f4 [256]
-0.123880215 -0.03130508 -0.097417496 -0.014570105 0.11094455 0.1161953 0.08888547 -0.06318446
0.041565347 -0.12320795 -0.11175263 0.15523094 0.14010194 -0.015565381 -0.10817934 -0.16933496
-0.12828766 0.08769993 0.1970186 -0.09922251 0.083661556 -0.062102318 -0.012234073 -0.05502474
0.15188539 -0.102341555 -0.16573836 -0.15093441 -0.22790043 -0.15474881 0.073047616 0.05410536
-0.04407661 -0.04819378 0.024045918 0.1113587 0.050851345 0.08381876 -0.08827084 -0.23045382
-0.21904078 0.04532923 -0.053710364 -0.33215714 -0.05472705 -0.27589357 -0.049182512 -0.038648937
0.15355107 -0.06402167 0.06356086 -0.0688333 -0.024223242 -0.050095942 -0.1971005 0.0821477
0.1028578 -0.13608673 -0.15534417 -0.037342485 0.18050285 -0.06398578 0.11656877 0.025788054
-0.13412881 -0.25662866 0.029754901 0.14044045 0.050711486 -0.012903543 -0.053895753 0.09128042
0.040160615 -0.22310853 -0.027108002 0.28148815 0.16052464 -0.05968177 -0.13759023 0.23478666
0.10454582 0.026532529 -0.14094411 -0.04145103 -0.06394915 -0.082473 -0.05990566 -0.0019521156
-0.19667529 0.20945616 5.1425814e-05 -0.07822637 -0.14540768 -0.11923081 -0.017901003 -0.05987478
0.029060783 0.050595257 -0.10701232 0.007738686 0.024405627 -0.12000871 0.11347962 -0.13844927
-0.03103867 -0.09647965 0.0526613 0.07714218 -0.104689635 -0.12009133 0.14526276 -0.04285843
0.05450804 -0.09010418 -0.021822829 0.17521814 -0.06888695 -0.1926262 0.053564373 0.036657315
0.006021888 0.10613537 0.035383623 0.033942927 -0.28165624 0.07487462 -0.15194955 0.13202769
0.014904328 0.0065856627 -0.15537958 0.110308826 0.18617135 -0.027687421 0.00025894507 -0.12748013
-0.03899544 -0.046750084 -0.06068717 0.120400004 -0.03667844 0.04817146 -0.0022067344 0.009623035
-0.066453494 -0.24331346 -0.1309013 -0.16275954 -0.16281344 -0.117533445 -0.08195948 0.04071908
-0.09176296 -0.019238036 -0.035925407 -0.23269199 -0.011995397 -0.25809655 -0.23771389 -0.119029224
-0.06557911 -0.10892774 0.07329276 0.14936686 0.12293312 -0.09677218 0.06582164 0.17121597
0.087556764 0.08159122 -0.10847838 -0.101241425 0.05714081 -0.06677497 0.0019666704 0.044216346
-0.08486861 -0.26655513 0.083035335 0.06804447 -0.021382235 -0.031846087 -0.059174214 -0.07667695
-0.032127965 0.014352332 0.089135975 -0.087704934 -0.009508966 -0.038460046 -0.060742788 -0.0047308295
-0.11660734 0.13968344 -0.046289127 0.02551839 0.061778776 -0.0010168483 -0.1647274 -0.22131634
0.038804825 -0.14788482 0.056672055 -0.040915526 -0.009138377 0.07580566 -0.13210496 -0.24010105
-0.12718897 0.031971276 -0.12821683 0.041293025 -0.07799763 -0.079558335 -0.18222678 0.015155135
-0.24053079 -0.05952685 -0.07901263 0.010888382 -0.07010758 -0.0820152 -0.029167723 0.17435838
-0.026079262 -0.20195185 -0.047557227 -0.15622212 0.028084263 -0.078716844 -0.009835116 0.12912261
-0.16328649 -0.16857788 0.026699556 0.18672162 -0.100281455 0.006942275 -0.07458143 0.12516156
0.021418156 -0.032107018 -0.08768516 -0.17407487 -0.10553204 -0.059020407 -0.17272542 -0.1864256
-0.052147456 0.11728372 0.09068743 0.15281723 -0.09524088 -0.13138653 0.1747268 0.0027502289
00000000: e9b4 fdbd c139 00bd d382 c7bd 73b7 6ebc
00000010: e536 e33d cdf7 ed3d 9609 b63d db66 81bd
00000020: 6d40 2a3d 7354 fcbd 90de e4bd dcf4 1e3e
00000030: e276 0f3e f105 7fbc 218d ddbd 2566 2dbe
00000040: d75d 03be 059c b33d 3ebf 493e 2c35 cbbd
00000050: c056 ab3d 005f 7ebd 6c71 48bc 9f61 61bd
00000060: d887 1b3e 7398 d1bd 51b7 29be 8d8e 1abe
00000070: bb5e 69be 7976 1ebe fd99 953d 959d 5d3d
00000080: ad89 34bd d766 45bd f2fb c43c 0810 e43d
00000090: 8049 503d 2ca9 ab3d 58c7 b4bd 16fc 6bbe
000000a0: 3a4c 60be 25ab 393d 66ff 5bbd 8010 aabe
000000b0: 7929 60bd ec41 8dbe 9a73 49bd 594e 1ebd
000000c0: 7e3c 1d3e cb1d 83bd 322c 823d 79f8 8cbd
000000d0: d26f c6bc 6731 4dbd b7d4 49be 0e3d a83d
000000e0: 1ca7 d23d 525a 0bbe 8b12 1fbe 6ff4 18bd
000000f0: bdd5 383e fa0a 83bd 9bbb ee3d 7841 d33c
00000100: 1059 09be d564 83be 8dc0 f33c 9fcf 0f3e
00000110: d9b6 4f3d 6269 53bc cbc1 5cbd 3bf1 ba3d
00000120: 757f 243d 9076 64be 9a11 debc 371f 903e
00000130: 9260 243e df74 74bd 74e4 0cbe ea6b 703e
00000140: 1e1c d63d bf5a d93c a753 10be 8ec8 29bd
00000150: c6f7 82bd 9be7 a8bd a35f 75bd 21de ffba
00000160: 3f65 49be ad7b 563e 0cb2 5738 2635 a0bd
00000170: c0e5 14be 482f f4bd 20a5 92bc 423f 75bd
00000180: e110 ee3c f93c 4f3d 4629 dbbd ce94 fd3b
00000190: 4fee c73c 20c7 f5bd 0168 e83d a5c5 0dbe
000001a0: cf44 febc 1f97 c5bd 60b3 573d b8fc 9d3d
000001b0: 8567 d6bd 71f2 f5bd c3bf 143e 528c 2fbd
000001c0: d343 5f3d 8a88 b8bd cac5 b2bc 626c 333e
000001d0: 9a14 8dbd cd3f 45be 5166 5b3d fb25 163d
000001e0: 4253 c53b 805d d93d 6bee 103d bd07 0b3d
000001f0: 3f35 90be dd57 993d aa98 1bbe 4432 073e
00000200: 4831 743c 8bcc d73b d31b 1fbe 98e9 e13d
00000210: b4a3 3e3e bbd0 e2bc 05c3 8739 278a 02be
00000220: afb9 1fbd 047d 3fbd 1c93 78bd 4794 f63d
00000230: 223c 16bd 704f 453d dc9e 10bb efa9 1d3c
00000240: c518 88bd 2a27 79be fe0a 06be 70aa 26be
00000250: 91b8 26be 60b5 f0bd 5fda a7bd 0dc9 263d
00000260: 38ee bbbd 1699 9dbc 8526 13bd cf46 6ebe
00000270: 5788 44bc 3b25 84be 456b 73be 98c5 f3bd
00000280: 574e 86bd 8215 dfbd 841a 963d a0f3 183e
00000290: 5cc4 fb3d 7e30 c6bd 7fcd 863d 3d53 2f3e
000002a0: f650 b33d 4c19 a73d ea29 debd aa57 cfbd
000002b0: 7b0c 6a3d 51c1 88bd 41e3 003b 331c 353d
000002c0: 98cf adbd ea79 88be 6e0e aa3d e65a 8b3d
000002d0: cc29 afbc 0b71 02bd a960 72bd ce08 9dbd
000002e0: 9d98 03bd 0b26 6b3c ec8c b63d a59e b3bd
000002f0: 7ecb 1bbc 4888 1dbd 6ecd 78bd 1305 9bbb
00000300: d4cf eebd 2d09 0f3e ab99 3dbd f10b d13c
00000310: be0b 7d3d c447 85ba 4dae 28be c0a0 62be
00000320: cff1 1e3d 1e6f 17be f520 683d 0a97 27bd
00000330: 22b9 15bc ff3f 9b3d 8646 07be 0ddd 75be
00000340: d33d 02be 50f4 023d 464b 03be e022 293d
00000350: 39bd 9fbd 7bef a2bd a899 3abe 3e4d 783c
00000360: b44d 76be 6dd2 73bd 60d1 a1bd 2f65 323c
00000370: 9094 8fbd 96f7 a7bd 26f1 eebc 018b 323e
00000380: 2da4 d5bc 77cc 4ebe 5ecb 42bd b1f8 1fbe
00000390: f810 e63c 4c36 a1bd 7723 21bc b838 043e
000003a0: 9334 27be ae9f 2cbe 07b9 da3c f433 3f3e
000003b0: 5d60 cdbd 067c e33b 26be 98bd 5a2a 003e
000003c0: 2175 af3c a682 03bd 4794 b3bd af40 32be
000003d0: 2f21 d8bd 62bf 71bd efde 30be 5ae6 3ebe
000003e0: 9298 55bd 7232 f03d 55ba b93d 1f7c 1c3e
000003f0: a70d c3bd 318a 06be 95eb 323e 2f3d 343b

fc2.weight f4 [128, 260]
-0.060777813 -0.025147496 -0.034669064 0.088668734 -0.1403911 -0.12816721 -0.1344176 -0.10135091
-0.15422522 0.13592209 -0.033988576 9.275628e-05 0.0025949315 0.0599601 0.07916962 -0.051978268
-0.039583113 0.019092249 -0.08237822 0.03117568 -0.17345469 0.022828989 0.051966697 -0.07646837
-0.14294259 -0.013657122 -0.053661384 0.06637805 0.13841036 0.23506387 -0.18165159 -0.073896594
-0.030225512 -0.14442497 -0.13607793 -0.11557015 -0.045509856 -0.0077592297 -0.0739176 0.10507038
0.1367816 -0.12079133 0.025678866 0.38183117 -0.012209612 0.1314324 -0.13363045 -0.06981937
0.026298365 0.10128881 -0.13022804 0.39951006 0.07216039 0.24104327 0.29334238 -0.12505777
-0.04655308 -0.16380867 0.089566834 -0.095139064 0.004331327 -0.01892289 0.14685716 -0.05501535
0.17453878 0.17901039 0.0015168154 -0.043532323 0.029421302 -0.16281523 -0.2174606 -0.062410418
0.21204238 0.3050254 -0.21033318 0.06448895 0.0013223574 -0.13332042 -0.049627632 -0.04096317
-0.105484076 0.0925324 0.031185592 0.22704875 0.29670104 -0.16709252 -0.08943451 0.19809888
0.11080508 -0.10853815 0.006684303 -0.083828956 0.5227998 0.23442204 -0.23827548 -0.007426919
-0.21267283 -0.0074248635 -0.031433754 -0.11972956 0.030166967 0.008914154 -0.15240242 0.0024704824
-0.14502296 0.06758226 -0.10386249 0.011273662 -0.12599346 -0.0025871538 -0.19966806 0.0015103612
-0.007376265 0.02411921 -0.1320342 0.0244919 0.14790596 0.042252887 0.0048686736 -0.02848409
-0.07115222 -0.12010944 0.14960639 0.030324232 0.26727512 0.12778012 0.29468313 0.011431586
-0.085565574 -0.13020863 0.3172856 -0.07678124 -0.032655526 0.023164084 -0.022403706 -0.08201162
0.00033346622 -0.0016717181 -0.026010571 -0.12017747 0.015556235 -0.0101373615 -0.026226927 -0.09605602
-0.15638371 0.096067846 0.0802301 0.46682337 0.047686107 -0.06955746 -0.12706824 -0.10616602
-0.114449985 -0.0073443246 0.016112069 0.078734055 -0.14284143 -0.002800299 0.12421222 0.07347861
-0.008725375 0.28015113 0.00036756144 -0.06846248 -0.09271264 0.20884798 -0.042907655 -0.145167
-0.08636999 -0.06864332 0.0233407 -0.058775812 0.040944926 -0.100015126 -0.11486651 -0.057162717
0.3622761 0.17300645 -0.044110954 -0.11492107 -0.014091055 -0.037457734 0.10870742 -0.058499288
0.09913973 -0.03315247 -0.23240842 0.034310047 -0.036050044 -0.04830718 0.04239935 -0.08641493
-0.009499315 -0.12539333 0.13546847 -0.009077348 0.006143873 -0.015127453 -0.020493146 0.17196621
-0.14509533 -0.028714346 -0.12736921 -0.042910684 0.1991914 -0.049629524 -0.018277703 0.08084973
-0.02574521 -0.06572804 0.050603252 -0.15212832 -0.0596144 0.027803294 0.27610585 -0.13093664
0.010190999 -0.063298956 -0.056947947 -0.18796687 0.019687636 0.15135397 -0.0345597 -0.15510355
-0.015035741 -0.22333482 0.05719846 -0.07660147 -0.06452259 0.0055902004 0.13158874 -0.027915576
-0.047287762 0.1542504 -0.022910874 -0.19220878 0.02259777 -0.10157018 -0.036735218 -0.035034094
-0.16414642 -0.11717742 0.07928402 0.38575113 -0.06118701 -0.010953014 0.104237534 0.019732827
0.113303274 -0.13433757 -0.11036014 0.006969254 0.2623932 -0.009054972 -0.113318264 0.024154399
00000000: 28f2 78bd 1f02 cebc 2601 0ebd f497 b53d
00000010: afc2 0fbe 443e 03be c4a4 09be 1191 cfbd
00000020: 37ed 1dbe 292f 0b3e 9b37 0bbd 2686 c238
00000030: ba0f 2a3b b998 753d af23 a23d 2ae7 54bd
00000040: e721 22bd 5967 9c3c eab5 a8bd 2464 ff3c
00000050: 1b9e 31be dc03 bb3c 08db 543d 739b 9cbd
00000060: 8b5f 12be 1fc2 5fbc 0acc 5bbd 37f1 873d
00000070: 72bb 0d3e 95b4 703e e002 3abe 1957 97bd
00000080: 7e9b f7bc 24e4 13be 0358 0bbe 0bb0 ecbd
00000090: 8b68 3abd 2341 febb 1c62 97bd 242f d73d
000000a0: 7a10 0c3e 7261 f7bd 7c5c d23c 607f c33e
000000b0: d30a 48bc 3796 063e 6cd6 08be 75fd 8ebd
000000c0: ab6f d73c 8270 cf3d 805a 05be 958c cc3e
000000d0: d4c8 933d 0cd4 763e f930 963e 250f 00be
000000e0: 71ae 3ebd 76bd 27be d16e b73d 45d8 c2bd
000000f0: ceed 8d3b 2d04 9bbc b961 163e c757 61bd
00000100: 4bba 323e 804e 373e e1cf c63a f34e 32bd
00000110: f104 f13c 09b9 26be fead 5ebe 11a2 7fbd
00000120: a321 593e 4a2c 9c3e 9561 57be c812 843d
00000130: f452 ad3a 2685 08be 5846 4bbd ffc8 27bd
00000140: 0908 d8bd a081 bd3d ed78 ff3c 787f 683e
00000150: 33e9 973e 4d1a 2bbe 7129 b7bd 6fda 4a3e
00000160: c6ed e23d 4049 debd ff07 db3b 84ae abbd
00000170: 35d6 053f 550c 703e 7dfe 73be 835d f3bb
00000180: e8c6 59be 454c f3bb aec0 00bd c634 f5bd
00000190: b720 f73c ac0c 123c 610f 1cbe d1e7 213b
000001a0: e680 14be 9168 8a3d dbb5 d4bd 2ab5 383c
000001b0: 6e04 01be 3d8d 29bb c975 4cbe 50f7 c53a
000001c0: 98b4 f1bb a695 c53c f933 07be 3da3 c83c
000001d0: a974 173e 5d11 2d3d 6589 9f3b 7757 e9bc
000001e0: 41b8 91bd f0fb f5bd 6b32 193e 866a f83c
000001f0: 49d8 883e cbd8 023e b5e0 963e 8c4b 3b3c
00000200: 013d afbd 6955 05be 4273 a23e 7c3f 9dbd
00000210: cdc1 05bd 9bc2 bd3c fa87 b7bc b5f5 a7bd
00000220: 14d5 ae39 8d1d dbba 1f14 d5bc 9b1f f6bd
00000230: 94df 7e3c 2d17 26bc dad9 d6bc 05b9 c4bd
00000240: 0d23 20be 38bf c43d ae4f a43d 7903 ef3e
00000250: 8252 433d 2474 8ebd 2d1e 02be 926d d9bd
00000260: c164 eabd a9a8 f0bb 75fd 833c 523f a13d
00000270: 0645 12be 3985 37bb fa62 fe3d f47b 963d
00000280: e0f4 0ebc f86f 8f3e 43b5 c039 0f36 8cbd
00000290: 20e0 bdbd 3fdc 553e f0bf 2fbd a8a6 14be
000002a0: c0e2 b0bd de94 8cbd ff34 bf3c e8be 70bd
000002b0: deb5 273d bbd4 ccbd 223f ebbd 7423 6abd
000002c0: 417c b93e 9a28 313e b0ad 34bd bd5b ebbd
000002d0: 2bde 66bc 486d 19bd ffa1 de3d f39c 6fbd
000002e0: c509 cb3d e2ca 07bd 79fc 6dbe b188 0c3d
000002f0: 36a9 13bd c0dd 45bd f1aa 2d3d 50fa b0bd
00000300: 04a3 1bbc 1c67 00be 3fb8 0a3e 28b9 14bc
00000310: 8b52 c93b 23d9 77bc 3ee1 a7bc e917 303e
00000320: df93 14be 593a ebbc 136d 02be 1dc3 2fbd
00000330: d5f8 4b3e 5448 4bbd 1fbb 95bc 8b94 a53d
00000340: 9ee7 d2bc 6c9c 86bd 5b45 4f3d 87c7 1bbe
00000350: 3b2e 74bd bcc3 e33c bf5d 8d3e 4114 06be
00000360: 26f8 263c e2a2 81bd 4042 69bd 637a 40be
00000370: f747 a13c 89fc 1a3e 798e 0dbd 77d3 1ebe
00000380: 7858 76bc e2b1 64be ef48 6a3d 3be1 9cbd
00000390: 6b24 84bd 002e b73b 33bf 063e 35af e4bc
000003a0: d0b0 41bd d1f3 1d3e 96af bbbc 61d2 44be
000003b0: f51e b93c 0704 d0bd ab77 16bd e97f 0fbd
000003c0: 0016 28be b7fa efbd a95f a23d 2c81 c53e
000003d0: 3b9f 7abd 4574 33bc 7d7a d53d bda6 a13c
000003e0: 8c0b e83d ca8f 09be 7f04 e2bd 575e e43b
000003f0: 6758 863e 4e5b 14bc 6813 e8bd 72df c53c

fc2.bias f4 [128]
-0.10548543 -0.21365458 0.124392584 0.005927416 -0.15502958 -0.08876652 -0.10000223 0.055555176
0.11945539 -0.089188784 -0.13075058 -0.13517228 0.12674762 -0.14856133 -0.0884882 -0.055791892
0.19000925 0.14489819 -0.08558918 -0.02747858 0.03686919 -0.17456752 0.16709967 -0.16957976
-0.22063333 0.050975297 0.19542104 -0.036560725 -0.05211677 -0.19289282 -0.09955427 -0.025081519
0.043087475 -0.035834424 -0.118892804 -0.11682394 0.058701865 0.04295371 0.075288706 0.10790084
0.10994716 0.031816956 -0.19057465 0.025076136 -0.10068545 -0.017312188 0.205817 -0.13627392
-0.071555525 -0.02995331 0.07808375 -0.19492425 -0.0058084535 0.07191034 -0.102955885 -0.09517943
-0.12257932 -0.019706858 -0.109958775 0.019742077 0.09624968 0.03520574 -0.13893895 -0.065988235
0.09510291 0.035137866 0.15398695 0.10210539 0.16512205 -0.08481827 0.08161363 -0.008857214
0.085467406 0.089178726 -0.17402232 -0.08895609 -0.16895896 -0.11632875 0.010875127 0.12420261
0.114168756 0.14639789 -0.15879774 0.15829358 -0.036793567 0.05422102 -0.16342336 0.117045484
0.18091883 -0.04186659 0.14813752 -0.1660077 0.13223726 -0.058237188 -0.11367066 -0.090987734
-0.09430145 -0.10546389 -0.19232318 0.14822522 -0.13698858 0.09917662 -0.108258985 -0.16478676
0.17661968 -0.16654345 -0.03257836 0.14244066 0.08289555 -0.06748782 0.09898225 -0.15162005
0.11505855 0.062790394 0.02876544 -0.109361686 -0.091017924 -0.12721562 -0.15942293 0.07437592
-0.11577836 -0.12880817 0.06496106 0.15761724 0.17482449 -0.15728347 -0.19503988 0.1632156
00000000: bf08 d8bd 44c8 5abe 8ac1 fe3d c53a c23b
00000010: 13c0 1ebe 39cb b5bd f8cd ccbd d38d 633d
00000020: 07a5 f43d 9ca8 b6bd 7be3 05be 9a6a 0abe
00000030: 21ca 013e 7620 18be 4d39 b5bd 0a86 64bd
00000040: c991 423e 3160 143e 6149 afbd c21a e1bc
00000050: 2604 173d d4c1 32be 2d1c 2b3e 51a6 2dbe
00000060: b4ed 61be 79cb 503d 741c 483e b3c0 15bd
00000070: 6578 55bd b285 45be 1ce3 cbbd c277 cdbc
00000080: 7e7c 303d 1ec7 12bd 127e f3bd 6441 efbd
00000090: 5e71 703d 3bf0 2f3d f730 9a3d 1efb dc3d
000000a0: fa2b e13d 7f52 023d 0026 43be 786c cd3c
000000b0: 2c34 cebd 4ad2 8dbc b1c1 523e 648b 0bbe
000000c0: b48b 92bd a560 f5bc 60ea 9f3d 399a 47be
000000d0: d754 bebb ba45 933d 89da d2bd 6fed c2bd
000000e0: de0a fbbd 4770 a1bc 1132 e1bd 23ba a13c
000000f0: 8d1e c53d e533 103d 0346 0ebe d724 87bd
00000100: 51c5 c23d b9ec 0f3d c1ae 1d3e a11c d13d
00000110: c115 293e 33b5 adbd 0c25 a73d d91d 11bc
00000120: 8909 af3d 56a3 b63d e832 32be 9c2e b6bd
00000130: 9403 2dbe c53d eebd 972d 323c f05d fe3d
00000140: 4fd1 e93d 54e9 153e e09b 22be b617 223e
00000150: dab4 16bd dc16 5e3d 7458 27be 8bb5 ef3d
00000160: c942 393e 4d7c 2bbd 5db1 173e ecfd 29be
00000170: 3469 073e 1e8a 6ebd 2acc e8bd c757 babd
00000180: 1e21 c1bd 74fd d7bd 5ef0 44be 5ac8 173e
00000190: bc46 0cbe 1d1d cb3d e3b6 ddbd dcbd 28be
000001a0: cadb 343e 5e8a 2abe e370 05bd f7db 113e
000001b0: 24c5 a93d 0e37 8abd 35b7 ca3d 4942 1bbe
000001c0: d1a3 eb3d 4098 803d 80a5 eb3c 05f9 dfbd
000001d0: 9b67 babd d044 02be c43f 23be 6752 983d
000001e0: 341d edbd 4ae6 03be 4e0a 853d 6a66 213e
000001f0: 3105 333e eb0e 21be 89b8 47be fe21 273e

fc3.weight f4 [1, 128]
-0.0874558 -0.07939789 0.42137545 0.51343644 -0.099649265 -0.13869816 -0.16648315 0.85774916
0.21654879 -0.9267443 -0.09890437 -0.096335456 0.90544057 -0.095797695 1.0970832 -1.7246594
0.37946674 0.4005057 -0.18230742 -0.45999435 0.87628925 -0.09711063 0.112599954 -0.10251066
-0.6072337 -0.81622064 0.15131402 -1.2712836 -0.9305488 -0.08754213 -0.08770666 0.63218194
0.6737592 -0.78142667 -0.09575661 -0.112320185 0.46390828 0.3587 0.37805608 0.45658424
-1.7741746 0.856678 -0.085374065 1.0966663 -0.104303606 -0.6672107 0.3877243 -1.6387427
-0.13353077 -1.1064426 0.22374174 -0.107152276 -0.7733475 0.7016127 -0.13928908 -0.31165546
-0.087801665 -0.9908618 -0.078125454 0.6180628 0.6797587 -0.6471188 -0.10660611 -0.64435303
0.57565403 0.341866 0.5429189 0.30109245 0.5325737 -0.10292184 0.44306067 -0.6550276
-2.1017835 0.5163415 -0.099945486 -0.45787627 -0.09600874 -0.09185462 -0.66460824 0.5777676
0.38269547 0.3613513 -0.087410994 0.8720558 -1.9373809 -0.85971797 -0.14946929 0.31986022
0.4027667 -0.9641006 0.29124266 -0.16445199 0.3588195 -1.3433585 -0.07904371 -0.102162145
-1.8405964 -0.112720616 -0.09383082 0.6727753 -0.97661716 1.0041895 0.51490754 -0.31320485
0.35114524 -0.09127192 -1.163839 0.16451195 0.5553957 -1.3406581 0.8761852 -0.07110996
0.79802495 -1.6299684 1.0459198 -0.101947494 -1.2684059 -0.101081334 -0.07582496 0.8360541
-0.1693062 -0.08197365 -1.6376764 0.41567725 0.30037025 -0.08213511 -0.08667171 0.5745731
00000000: 071c b3bd 5c9b a2bd 86be d73e 9270 033f
00000010: ea14 ccbd e406 0ebe 8f7a 2abe 7395 5b3f
00000020: f7be 5d3e 1d3f 6dbf 608e cabd 864b c5bd
00000030: f4ca 673f 9531 c4bd 396d 8c3f a4c1 dcbf
00000040: 7749 c23e 150f cd3e ccae 3abe 6184 ebbe
00000050: 7e54 603f f0e1 c6bd ce9a e63d 1cf1 d1bd
00000060: ab73 1bbf d6f3 50bf 10f2 1a3e 6cb9 a2bf
00000070: 7238 6ebf 4a49 b3bd 8d9f b3bd add6 213f
00000080: 7c7b 2c3f 940b 48bf 0b1c c4bd 2008 e6bd
00000090: 6385 ed3e 87a7 b73e 9190 c13e 69c5 e93e
000000a0: 2718 e3bf 404f 5b3f 99d8 aebd 905f 8c3f
000000b0: 219d d5bd 52ce 2abf cd83 c63e 52c2 d1bf
000000c0: 4abc 08be e99f 8dbf 8e1c 653e a772 dbbd
000000d0: 1afa 45bf e49c 333f cca1 0ebe 4e91 9fbe
000000e0: 5cd1 b3bd 1ea9 7dbf 3d00 a0bd 5d39 1e3f
000000f0: ab04 2e3f 94a9 25bf 4e54 dabd 52f4 24bf
00000100: 105e 133f 0f09 af3e bcfc 0a3f ca28 9a3e
00000110: c056 083f b0c8 d2bd d9d8 e23e e4af 27bf
00000120: 9f83 06c0 f52e 043f 38b0 ccbd c26e eabe
00000130: 3ba0 c4bd 461e bcbd c423 2abf 94e8 133f
00000140: a9f0 c33e 0a03 b93e 8904 b3bd 0d3f 5f3f
00000150: 19fc f7bf 7a16 5cbf 7a0e 19be b8c4 a33e
00000160: 7037 ce3e 4ccf 76bf c21d 953e 1a66 28be
00000170: 31b7 b73e 2cf3 abbf abe1 a1bd 633a d1bd
00000180: aa98 ebbf 11da e6bd 5f2a c0bd 013b 2c3f
00000190: 9503 7abf 4889 803f fbd0 033f 635c a0be
000001a0: 4fc9 b33e c6ec babd adf8 94bf d275 283e
000001b0: 6a2e 0e3f af9a abbf ac4d 603f 19a2 91bd
000001c0: 5d4b 4c3f cea2 d0bf b3e0 853f d9c9 d0bd
000001d0: 205b a2bf bb03 cfbd 1e4a 9bbd a407 563f
000001e0: 9b5e 2dbe cde1 a7bd 619f d1bf a6d3 d43e
000001f0: 21ca 993e 7436 a8bd f080 b1bd 3917 133f
