trained_actor.pth (torch, 102435 bytes, 14 tensors)

fc0.weight f4 [128, 48]
000000 63 cc 94 bd ac 87 f2 be 1c 5b 32 bd 1b 1b fc bd
       -0.07265546 -0.47369134 -0.04354392 -0.123098575
000010 da f1 ea be 7b ca 6b bf 1f 21 c0 bc 2d 57 f6 bd
       -0.45887643 -0.92105836 -0.023453293 -0.12028346
000020 34 f1 88 3e 0c 1a ac be 45 15 f0 3d 4b e2 82 3c
       0.26746523 -0.33613622 0.11722807 0.015977046
000030 2b a3 42 be 68 cd 3f be 95 08 99 3d 3e f1 aa 3d
       -0.19007556 -0.187307 0.0747234 0.083467945
000040 06 15 e1 3e 0a 43 44 be b2 b5 41 3d a1 0c a1 be
       0.43961352 -0.19166198 0.04729242 -0.31454948
000050 37 4a 13 bc c6 e7 f9 3e 60 95 cb 3c 34 90 a8 be
       -0.008989862 0.48809642 0.024851501 -0.32922518
000060 6a 9a 01 3f c2 98 a2 3e 81 27 56 bd 68 1b 05 be
       0.5062624 0.3175717 -0.052283768 -0.12998736
000070 72 d8 02 3f 95 3b 4b bf 71 9b e2 bd 22 a8 6c bd
       0.5111152 -0.7938779 -0.11064804 -0.05777753
000080 c9 f5 1a 3f f7 56 c9 3e 11 b8 64 bd 5e 8b f6 3d
       0.6053129 0.3932416 -0.055839602 0.12038301
000090 16 b3 56 3e 31 c9 4e be 88 b4 54 bd 3e 80 7b 3d
       0.20966753 -0.20193936 -0.05192998 0.0614016
0000a0 6e be 25 3f ca 3e 18 3f c4 f0 08 bd ec ea fa 3c
       0.647437 0.5947081 -0.033432737 0.030629598
0000b0 b6 7c 93 bd cc 71 e3 3e 68 7a bb 3b f2 da f4 3c
       -0.07201521 0.44422758 0.005721379 0.029889558
0000c0 d7 d2 ca 3d 55 63 f9 3b 3d 87 b5 be dc 5a 06 be
       0.09903496 0.0076107183 -0.3545474 -0.13120598
0000d0 f7 b7 69 3e 0d 6e 00 bf f1 aa 8b be a2 15 c1 bd
       0.22824083 -0.50167924 -0.27278855 -0.09427954
0000e0 84 0c 4e 3d d1 b6 aa bd 63 f7 81 3d 7b bd 9a bd
       0.050304905 -0.08335651 0.063460134 -0.07555672
0000f0 ec 4c 86 3e 3d a0 cc be f0 df 0b 3e 6d 19 01 be
       0.26230562 -0.39966002 0.13659644 -0.12607355
000100 2b c6 ad 3d bb a6 8d bd fd d6 52 be 33 e8 fb bd
       0.08485063 -0.06916567 -0.20589824 -0.12300148
000110 a8 16 be 3e 7c 2b 3e be 42 f0 84 be 34 5b 34 be
       0.3712666 -0.18571275 -0.25964552 -0.17612916
000120 53 2e eb 3d d4 d5 46 be ae b5 07 bf ed c4 32 be
       0.11483445 -0.19417506 -0.53011596 -0.17457934
000130 c9 7e 66 be 23 e6 d0 be a5 25 da be c7 e5 e2 bd
       -0.22509302 -0.4080058 -0.42606845 -0.11078983
000140 9e db c5 3d 10 14 15 be 7e 54 64 be 19 30 5e 3d
       0.09661029 -0.14558434 -0.22297856 0.05424509
000150 90 3b c1 be 87 03 bb be dc 6c 90 be e6 72 e0 3d
       -0.37740755 -0.3652613 -0.28208053 0.10959415
000160 9c 46 93 3d 17 49 8c be 77 c1 21 3e 9c 9f d3 bc
       0.07191202 -0.27399513 0.15796457 -0.025832944
000170 44 0d e3 be 1e da 4c be ff 4c a7 3b 2a e5 07 be
       -0.44346058 -0.2000508 0.005105614 -0.13271013
000180 04 d3 ec 3d e5 95 53 3c c3 77 df 3c d0 7a 1d 3f
       0.115636855 0.012914156 0.027278787 0.6151552
000190 84 5a a8 3e 93 58 03 bf 63 0f 95 3d ae 43 15 3f
       0.32881558 -0.5130703 0.072783254 0.58306396
0001a0 06 b3 c5 3d 61 ef 1d 3d 7c 98 8a bd f2 55 65 3e
       0.09653287 0.038558368 -0.06767365 0.22396067
0001b0 f1 98 2e 3e ea 0b 80 bf 13 ed 15 be 16 f8 33 3e
       0.1705053 -1.0003636 -0.14641218 0.17575106
0001c0 03 8f fd 3d 54 35 8d 3e b6 44 1e 3e 5b 91 db bd
       0.12380793 0.2757975 0.15455899 -0.10721084
0001d0 5c 82 06 bd 32 f4 94 bf 3d 8b 2c 3d d2 50 58 3d
       -0.032839164 -1.1637022 0.042124975 0.05281145
0001e0 46 61 d7 3d 84 4d 5e 3e ac 9c 21 bc f3 d5 05 be
       0.105166 0.21709257 -0.009864014 -0.13069896
0001f0 6d 52 eb be 33 7f 1a bf e7 c6 e4 bc fe 7f 44 be
       -0.45961323 -0.6035034 -0.027926875 -0.1918945
000200 ab 56 51 3e 7f 55 2e 3e 0f 38 b3 3e 0f b6 13 3e
       0.20443217 0.17024802 0.35003707 0.14424919
000210 02 be 9d bd 0f ee 6f bf 90 c3 55 3e 38 d6 a1 3d
       -0.07702257 -0.93722624 0.20875382 0.07902187
000220 13 60 9c 3e a5 4d 55 3e 7e 23 04 3e 78 ec 8f 3e
       0.3054205 0.208304 0.12904164 0.281101
000230 ad 9e 0e bb d3 e1 8e bf 3b 12 8f bb 15 9c 5a 3e
       -0.0021762059 -1.1162666 -0.004366187 0.21348603
000240 78 fa 00 3e 37 f0 16 3e 7f 14 ae be 89 77 65 bd
       0.12595546 0.14740072 -0.34000012 -0.0560222
000250 5d 61 3d 3b 00 1d a8 be 55 2c b9 be d6 a0 85 bc
       0.0028897144 -0.32834625 -0.36166635 -0.016312044
000260 2c 85 cf 3c 68 71 6b bd 1e f9 9c be bb 0d 0c 3d
       0.025332056 -0.0574812 -0.3065881 0.034192782
000270 27 57 4f be 72 5f 9e bd d5 d9 43 be 6c 47 c5 3d
       -0.2024809 -0.077330485 -0.19126065 0.09632763
000280 47 a0 45 bc 78 cb 9e 3d 23 b8 9a be 2b cc 21 3f
       -0.012062139 0.07753652 -0.3021861 0.6320216
000290 44 c9 49 be cc 22 31 3e 8f d9 81 be 7e d9 22 3f
       -0.19705683 0.1729843 -0.25361297 0.63613117
0002a0 75 8a 88 3c df 80 ff bd 10 16 95 bd 9a b9 35 be
       0.016667584 -0.12475752 -0.07279599 -0.17746583
0002b0 c2 45 df 3d 7b 04 bc be e0 d7 52 be cd 6b a9 bd
       0.10901977 -0.36722168 -0.20590162 -0.082725145
0002c0 38 07 eb bc 9a fe 98 bd e6 6c 93 3d 28 27 3e bd
       -0.028689966 -0.074704364 0.07198505 -0.04642406
0002d0 69 6e 98 3d c5 1f 01 bd 55 67 61 3d 5e d4 86 bd
       0.07442934 -0.03152444 0.055030186 -0.065834746
0002e0 7d 96 58 bb 74 30 52 bd 64 d4 04 3f 89 e6 5e 3c
       -0.0033048682 -0.05131574 0.5188658 0.013604769
0002f0 b0 30 55 3e 4b a2 9a 3e f3 96 fc 3e 29 41 e6 bc
       0.20819354 0.30201945 0.49333915 -0.028107243
000300 e1 f6 ad 3e c4 cb 2e bf 26 08 30 be 16 3d 99 3e
       0.33977416 -0.6827967 -0.17190608 0.29929417
000310 cc 8a 3d be 1a e8 3c bf 22 eb 02 be f7 c7 5c 3e
       -0.18509978 -0.7379166 -0.12785009 0.21560656
000320 42 2f ca 3d 8c 22 56 bf b9 12 9c be a3 ef 1c 3e
       0.09872295 -0.83646464 -0.30483034 0.15325789
000330 e1 3d 31 be bf b4 a3 bd 7f 7b b4 be ec c2 67 3e
       -0.17308761 -0.07993459 -0.3525047 0.2263295
000340 a4 8e 11 3e 2d d0 48 bf ac 45 05 be 07 92 9e 3d
       0.1421457 -0.7844265 -0.13014859 0.07742696
000350 14 d7 8f bd ca da 80 3e dd 73 06 be 05 b2 e3 3d
       -0.07023445 0.25166923 -0.13130136 0.11117939
000360 80 92 07 3e b9 3d 78 3e 78 7a 13 bf 8c bb 9f bc
       0.13239479 0.24242295 -0.5760875 -0.019498609
000370 2a 97 2d 3e 41 bc 2a bf 6c 8b e6 be 80 3b 42 3d
       0.16952196 -0.666935 -0.45028245 0.047420025
000380 2b 28 05 bc 8c 73 1d 3e 25 a0 70 3e 2d 5a 2a 3e
       -0.008127253 0.15376109 0.2349859 0.16635962
000390 52 67 03 3e d9 80 40 be ef 92 b5 3e b1 ce b6 3d
       0.12832382 -0.18799151 0.35463664 0.08926142
0003a0 01 5c 1e 3c c1 aa 89 3c 57 b4 19 3c 54 1a a5 be
       0.00966549 0.016805055 0.009381375 -0.3224665
0003b0 97 2b 01 bd 53 d1 c0 3e 01 1d 80 3c a3 08 81 be
       -0.03153571 0.37659702 0.01563883 -0.25201902
0003c0 f5 30 b7 b9 21 42 02 3f f0 db 78 3d cf 2c 1e 3e
       -0.00034940956 0.50882155 0.060756624 0.1544678
0003d0 90 52 0d be 4c 86 01 3d 5e 51 ef bc 05 33 69 3e
       -0.13801026 0.031622216 -0.029213604 0.22773369
0003e0 ad bb 1d bd a8 ae 2c 3f 91 a7 03 bd 63 16 94 bd
       -0.03850906 0.67454004 -0.032142226 -0.072308324
0003f0 38 6c 16 3d 1b 7a 74 bf d5 c0 6b bd 41 3a 78 bd
       0.0367243 -0.9549882 -0.057556946 -0.06060243

fc0.bias f4 [128]
000000 99 8f 09 bf dc c9 27 be aa 80 35 be 62 e8 46 3d
       -0.5373474 -0.16385597 -0.17724863 0.04856146
000010 07 12 83 be ca 86 e8 be a8 92 eb bd 6b 4d ee bd
       -0.2559969 -0.45415336 -0.11502582 -0.1163586
000020 dc 94 64 bd 82 a5 98 be ad 33 ad bd b6 81 25 bd
       -0.055806026 -0.29813772 -0.08457122 -0.040406905
000030 b8 12 11 bf 93 70 20 be 25 22 97 bc 89 da 35 be
       -0.5666919 -0.15667944 -0.018448899 -0.17759146
000040 c2 1c 49 be c6 56 4c 3c 1e 38 6e be 13 24 34 be
       -0.19639876 0.01247186 -0.23263595 -0.17591886
000050 16 80 f1 3d 63 47 b1 3a 7f ab d9 3d 70 c3 a9 3d
       0.117920086 0.0013525303 0.106284134 0.0828923
000060 6a 87 c5 bd 02 f5 0c bf ff 01 f5 bc af ed a1 be
       -0.09644969 -0.5506135 -0.029908178 -0.3162665
000070 4e 4e 9e be fa 15 4c 3c 69 aa f1 be 10 97 19 be
       -0.30919117 0.0124564115 -0.47200325 -0.14999032
000080 8b f4 5e bf c6 4f 1a 3d 93 b9 c5 3c ae f7 42 be
       -0.8709189 0.037673734 0.02413634 -0.19039795
000090 7a 3a bd be ca e2 c3 be 7c 6e 0d bf 1e 6f 0f 3e
       -0.36958677 -0.38258964 -0.5524671 0.14007232
0000a0 96 c2 26 3e 97 de c1 bd 9e 2b 0e be 2d ef 3a 3e
       0.16285166 -0.09466284 -0.13883826 0.18255301
0000b0 05 4d 4d bf ff f7 69 be e8 3f 30 3e e5 2a fd be
       -0.8019565 -0.22848509 0.17211878 -0.49446788
0000c0 c8 47 e0 bd 1c 66 3e be 1d 97 17 bf 02 ca 24 3e
       -0.10951191 -0.18593639 -0.59214956 0.16092685
0000d0 e5 74 c4 3c 43 f7 0c 3b 8c 9e 2c be 7c cd 53 be
       0.02398152 0.0021509684 -0.16857356 -0.20683855
0000e0 c1 89 86 be 10 f6 9e be 2e 49 5d be 45 fd 26 bf
       -0.26276973 -0.31047106 -0.21609947 -0.6523021
0000f0 40 ea 49 3e e7 74 35 bf b2 1c 34 bf c0 8f 5d bc
       0.19718266 -0.70881504 -0.70356286 -0.013523042
000100 14 cf 27 3e 4f f9 96 bc d0 c4 d3 be 46 ae 41 be
       0.16387588 -0.018429426 -0.41361094 -0.18914136
000110 f9 28 8d 3d c2 b0 6d be 45 a3 d8 be ed de c2 be
       0.068925805 -0.23211959 -0.42312065 -0.38060704
000120 77 5b 25 be 05 e4 c1 be ed f0 a8 bd 95 85 04 bf
       -0.16148172 -0.37869278 -0.08249078 -0.5176633
000130 26 6e 46 be ae 4d ce be ce 77 df bd 18 6b 33 be
       -0.19377956 -0.4029364 -0.10911523 -0.17521322
000140 fd ca d2 be fb 68 99 bd 82 90 d1 ba c8 58 cb be
       -0.41170493 -0.074907266 -0.0015988501 -0.39716172
000150 4f 46 36 bf 49 b0 27 be 9a f5 0b be 79 ef 1a bf
       -0.7120103 -0.16375841 -0.13667908 -0.60521656
000160 09 d4 25 be 9f 02 3f 3e e1 e7 50 bf be b4 1e bf
       -0.16194166 0.18653344 -0.8160382 -0.6199454
000170 a3 9b 30 be af c7 5b bd 4c 3e de be a9 4a 8c be
       -0.1724687 -0.05365723 -0.43406904 -0.2740071
000180 f2 fb ee be a5 94 aa 3d 92 70 0b be b7 d1 60 3e
       -0.46676594 0.08329133 -0.13617161 0.21955
000190 46 6d 71 3d 8f 28 ca be b9 4f df be da f8 73 bc
       0.058942102 -0.3948407 -0.4361551 -0.014890874
0001a0 62 6e 10 be c9 37 03 be 6b e6 90 be ba d2 d0 3d
       -0.14104608 -0.12814249 -0.28300795 0.10196443
0001b0 48 a6 c0 be 74 71 a5 be 6f 53 ff be ea cc 08 bf
       -0.37626863 -0.3231312 -0.49868342 -0.53437674
0001c0 ff ab 21 bf e3 36 05 be 43 c1 46 bf b9 af 4a bf
       -0.6315307 -0.13009219 -0.77638644 -0.7917438
0001d0 83 21 0f be 52 f2 fd 3d 94 b4 08 be 68 c4 06 3e
       -0.13977627 0.123997346 -0.13350135 0.1316086
0001e0 aa c3 50 3d 7a 26 df be 21 98 be be 4c 03 04 bf
       0.05096785 -0.43584043 -0.3722544 -0.5156753
0001f0 aa a3 96 be 53 80 12 3e c3 54 2f be ee 84 5e bd
       -0.2942174 0.14306764 -0.17122178 -0.05432599

bn0.weight f4 [128]
000000 58 98 94 3f f6 c8 79 3f 09 19 74 3f b5 f7 4d 3f
       1.1608992 0.9757227 0.953507 0.80456096
000010 de 58 65 3f 28 e5 9a 3f fd 0b 82 3f bd a4 2d 3f
       0.89588726 1.2101183 1.0159909 0.67829496
000020 9d c6 70 3f 90 73 4d 3f e0 c1 d3 3e cb 31 4c 3f
       0.9405306 0.8025446 0.41358852 0.7976348
000030 9d e8 da 3e 48 98 61 3f 98 db 7b 3f b5 c8 9e 3f
       0.42755595 0.8812299 0.9838195 1.2405001
000040 1d 63 b1 3f b1 ca e4 3e d2 84 34 3f fb cd ad 3e
       1.3858372 0.4468589 0.7051517 0.33946213
000050 84 c4 b5 3f 70 6d ce 3f d5 f3 aa 3f 13 60 39 3f
       1.4200597 1.6127148 1.3355662 0.7241222
000060 f2 15 9a 3f bb fe a6 3f dd d9 93 3f 84 17 7d 3f
       1.2037947 1.3046488 1.1550862 0.98864007
000070 ca f9 7b 3f 4b 9a bf 3f 5d bf 4a 3f 6c d2 7d 3f
       0.9842802 1.4968961 0.7919825 0.99149203
000080 e8 bf 15 3f bd e2 42 3f ce 24 85 3f 19 51 71 3f
       0.5849595 0.76127225 1.0401857 0.9426437
000090 2a 89 27 3f c5 51 9e 3e cd 21 8b 3f 41 07 95 3f
       0.6544367 0.3092176 1.086969 1.1642839
0000a0 41 aa 26 3f aa c0 e4 3e 20 17 c3 3e 35 bd cc 3f
       0.65103537 0.4467824 0.3810358 1.5995241
0000b0 e5 9f 82 3f 94 e4 43 3f d1 fc 47 3e c0 6a 47 3f
       1.0205046 0.7652066 0.19530036 0.7789726
0000c0 d0 44 ec 3e 22 95 87 3f 76 4c 74 3f 6c f2 a4 3f
       0.4614625 1.0592387 0.9542917 1.2886481
0000d0 da bf 79 3f d9 1f 61 3f 8a 71 81 3f d3 3c 91 3f
       0.9755837 0.8793922 1.0112774 1.1346687
0000e0 28 86 b5 3f 19 f9 80 3f 01 63 81 3f 24 65 0c 3f
       1.4181566 1.0076019 1.0108339 0.5484183
0000f0 17 57 59 3f c7 dc 36 3f e4 db ed 3e 10 93 8f 3f
       0.84898514 0.7143063 0.46456826 1.1216755
000100 3c 31 90 3f ea df ac 3f 66 17 45 3f 87 93 36 3f
       1.1265025 1.3505833 0.7698883 0.7131886
000110 da 94 91 3f b7 fc 2d 3f 1e 74 c1 3f f5 88 6e 3e
       1.1373551 0.6796374 1.5113561 0.23294432
000120 9d a8 b3 3e 2b c8 64 3f 82 f0 a7 3f 4c fc 29 3f
       0.3508958 0.8936793 1.3120272 0.664006
000130 c7 a6 9b 3f 47 ed 30 3f e6 4a c3 3f 2e e0 97 3f
       1.2160271 0.69112056 1.5257232 1.1865289
000140 99 11 8a 3f 3c fd c0 3f 54 86 89 3f 90 f7 cb 3f
       1.078662 1.5077281 1.0744119 1.5934925
000150 d9 75 83 3f e6 4a 90 3f 77 79 8a 3f d0 ec b8 3e
       1.0270339 1.1272857 1.0818318 0.36118174
000160 e9 4a 3f 3f c3 26 9f 3f ff d9 4d 3f ca 5f 72 3f
       0.7472368 1.2433704 0.8041076 0.9467741
000170 6a 67 55 3f 7d 65 98 3f fc 14 ff 3e c4 24 89 3f
       0.8336092 1.1905972 0.49820697 1.0714345
000180 fe bd f0 3e 76 21 c0 3f 3f 54 b6 3f 22 2f 97 3f
       0.47019953 1.5010211 1.424446 1.1811259
000190 cd 7c 94 3f 16 67 60 3e c7 e4 10 3f 3c ce 80 3f
       1.1600586 0.21914324 0.56599087 1.0062938
0001a0 1e e0 8c 3f 1a f6 26 3f 21 b0 c3 3f cd 2f 7f 3f
       1.1005895 0.6521927 1.5288125 0.99682313
0001b0 d8 f1 8d 3f 82 e5 0e 3f 0d 89 6d 3f 35 56 3e 3f
       1.108943 0.5581895 0.9278725 0.7435029
0001c0 de 26 56 3f 20 d6 2d 3f bb 66 10 3f ec c0 47 3f
       0.83653057 0.67904854 0.56406754 0.7802875
0001d0 a9 e8 45 3f 13 9c 9a 3f f7 77 93 3f 9f 8b 88 3f
       0.77308136 1.207888 1.1520985 1.0667609
0001e0 f7 bc 8e 3f 0a 9a 04 3f 5e 5f 19 3f e0 b1 fe 3e
       1.1151417 0.51797545 0.59911144 0.49745083
0001f0 89 20 93 3f 87 f0 0f 3f 27 5b 80 3f 20 2b 2f 3f
       1.1494304 0.5622639 1.0027817 0.6842518

bn0.bias f4 [128]
000000 3b c0 64 3f 22 fd c2 be c8 43 17 3f e7 05 63 3e
       0.8935582 -0.3808375 0.590878 0.2217022
000010 7d 95 05 3f 60 55 8d be 9f fc d2 be 4b 2e 98 3e
       0.52181226 -0.27604198 -0.4120836 0.2972282
000020 f5 59 ee 3e 57 56 88 bd 45 50 57 3e 5f de c1 3e
       0.46553007 -0.06657093 0.21026714 0.37864968
000030 38 84 a7 3e d9 7c f4 bc 5b d1 a4 3d 18 e6 39 3f
       0.32718062 -0.029844688 0.08047744 0.7261672
000040 f2 34 0e 3f 98 ed a5 3e fe 29 85 3e 5b a2 2f 3e
       0.5554954 0.32407832 0.260086 0.17151777
000050 01 19 6c 3f dd 1a 33 3f b2 3c a3 3c b1 58 4f 3f
       0.9222565 0.69962865 0.019926403 0.8099471
000060 72 3e 10 3f ff 01 12 ba 28 35 21 3f 21 72 f2 3e
       0.56345284 -0.00055697554 0.62971735 0.47352698
000070 db b7 df 3e 5a 0a 44 3f 22 7b aa 3d e1 d2 f9 3e
       0.43694958 0.76578295 0.08324267 0.487937
000080 71 9f 45 3d 50 6c 40 3f 29 aa 1d 3f d1 aa 50 3f
       0.04824776 0.7516527 0.6158777 0.81510645
000090 5a b4 d9 3d fb 57 47 3e e8 a5 82 3f bb e0 4b 3e
       0.106301025 0.19467156 1.020688 0.19909947
0000a0 fb 7c d1 be 32 5d 88 3d 32 ba 1d 3d 58 7a 55 3f
       -0.40915665 0.066584006 0.038507648 0.83389807
0000b0 f5 10 39 3d df c6 2f 3f 23 ea 03 bf a1 58 2a 3f
       0.045182187 0.6866283 -0.5152914 0.66541487
0000c0 41 8e 47 bd a6 55 6b bd 44 da 53 3f 67 b0 23 3f
       -0.04871965 -0.057454728 0.8275492 0.63941044
0000d0 06 85 96 3e ef 7e 5f 3e 6c d6 f5 3e b8 99 3e 3f
       0.29398364 0.21825765 0.48015153 0.74453306
0000e0 43 27 06 be 5d 68 87 3f 07 7c 20 3f 3d b6 95 3d
       -0.13100915 1.0578724 0.6268925 0.0731015
0000f0 27 40 28 be 60 bb b9 3e af 86 8a bd 24 3a ed 3e
       -0.16430722 0.36275768 -0.0676397 0.4633342
000100 ff a6 92 3f 50 20 5e bd 93 50 04 3e db 11 17 bf
       1.1457213 -0.054230034 0.12921362 -0.5901162
000110 0f 0b 43 3f 5f c6 1a be 83 59 81 be 11 6d d8 bc
       0.7618875 -0.15114735 -0.25263605 -0.026419194
000120 d8 f0 8f bf e8 9a 2d 3e b4 11 3e 3f 4f 38 81 3e
       -1.1245375 0.16953623 0.7424576 0.25238273
000130 1f 9e a8 3e 78 b4 c4 be 85 5b 24 3f bd 82 12 bf
       0.32933137 -0.38418937 0.6420215 -0.5723074
000140 3a 96 8c 3e 70 44 52 3f c4 51 36 bf ca ec 3c 3f
       0.27458364 0.8213568 -0.71218514 0.7379881
000150 e7 0f f8 bd f0 43 e7 3e 07 99 5e 3e 17 af a9 be
       -0.12112408 0.4516902 0.21738063 -0.33141395
000160 c9 44 8a be a6 d1 17 3f 0c 8c 08 3f 35 58 ad be
       -0.27005604 0.59304273 0.53338695 -0.3385636
000170 1a 13 0a 3d 5a 32 49 3f ab bf bb 3e 2c fd c1 be
       0.033709623 0.78592455 0.3666967 -0.37888467
000180 b2 11 fd be 05 79 57 3f 88 4f 43 3f a6 e4 34 3f
       -0.49427563 0.84169036 0.7629323 0.7066139
000190 74 ab ad 3c aa f5 15 3e 53 44 a1 3e e8 dd e2 3e
       0.02119992 0.14644495 0.3149744 0.44309926
0001a0 3f db 2f 3f c7 72 35 3e 72 7a 1c 3e 95 b5 34 be
       0.6869392 0.17719565 0.15281084 -0.17647393
0001b0 eb 66 66 3f 95 4b 98 3e 55 a1 83 3f 98 74 01 3f
       0.9000079 0.29745165 1.028361 0.5056853
0001c0 dd ec 00 be 52 7f 24 3e e3 65 b5 be ee 97 13 3d
       -0.12590356 0.16064194 -0.35429296 0.036033563
0001d0 2a b0 3a 3e 3c ba 43 3f 5f e0 8c 3e c0 03 13 3f
       0.18231264 0.76456046 0.27514932 0.574276
0001e0 8b 87 1b 3f 3e 3b 18 3e 7b 71 38 3f a0 15 d9 be
       0.607537 0.14866349 0.7204816 -0.4239931
0001f0 08 61 55 3e 6c fa 1a 3f 2b 45 c6 3e af 9e 0e 3e
       0.20837796 0.60538363 0.38724646 0.1392772

bn0.running_mean f4 [128]
000000 b9 9d 9a be ec 9f 72 40 f6 07 2e 3f c6 6e 55 40
       -0.30198458 3.7910109 0.679809 3.334886
000010 b0 b8 c4 3f f1 5e 9e 3d ff 4b 64 41 a8 35 bb 40
       1.5368862 0.077329524 14.268554 5.8503
000020 9c 26 a0 3f 6c 71 21 be 33 50 c8 3f e5 d7 38 40
       1.2511783 -0.15765923 1.5649475 2.8881772
000030 b3 a8 06 bf 4a 5d 8c bc 5b a0 69 40 52 d5 a1 3f
       -0.52601165 -0.017134327 3.6504123 1.2643225
000040 fd 73 be 3f ad 1d 39 40 dd 2b 47 40 a2 15 cc 3f
       1.4879147 2.8924363 3.1120522 1.5944102
000050 42 d7 01 40 fe 1f c8 3f 24 ba d2 3f 98 e0 a2 40
       2.0287633 1.5634763 1.6463056 5.089916
000060 11 07 89 3f c3 22 08 3e d0 60 18 41 db 33 61 be
       1.0705281 0.1329451 9.523636 -0.21992438
000070 22 dd 64 40 ed a6 80 40 0a 8e b3 be 25 c9 bb 3f
       3.5759969 4.0203767 -0.35069305 1.467076
000080 5e fd fa be 25 e6 2f 41 dd 7a f8 40 c2 47 31 40
       -0.4902143 10.993688 7.764998 2.7700047
000090 8e a4 08 3f ce 30 1c bf ce 1a ce be 1c c2 9b 40
       0.5337609 -0.6101197 -0.40254825 4.867445
0000a0 b8 7e 88 41 97 50 b2 3f 12 34 1c 41 c2 a9 40 3f
       17.061874 1.3930844 9.7627125 0.7525903
0000b0 c8 56 80 be a0 84 d5 3d ab 7a b0 41 f6 cd fb be
       -0.2506621 0.10425687 22.059896 -0.49180573
0000c0 0b f0 aa 3f 28 94 8f 3f 52 df 02 3e 86 93 41 41
       1.3354505 1.1217089 0.12780502 12.098516
0000d0 2e e2 47 3f a0 27 c5 40 00 53 5c 3f 41 51 56 40
       0.780795 6.161087 0.8606415 3.3487093
0000e0 6b 3e 8d 40 85 d9 99 3f 27 52 e6 3f 43 87 a8 be
       4.4138694 1.2019507 1.7993821 -0.32915697
0000f0 5f da 34 41 9e 9c 9e be a6 1e d2 be 4a ed 10 3f
       11.303313 -0.30978864 -0.41039008 0.56612074
000100 d4 e0 b7 40 6c 7e 0c 41 fe 15 82 3e 3a 44 4e 3f
       5.746195 8.780865 0.25407404 0.80572855
000110 02 89 9f 40 ee 22 95 41 3c a6 39 3f a9 ec 39 3f
       4.9854746 18.642056 0.7251928 0.7262674
000120 67 da e7 3f c2 11 22 3f dd e8 da 3f d7 c9 af be
       1.8113526 0.63308346 1.7102314 -0.3433368
000130 5c 13 17 3f 49 85 70 40 93 e3 4a 3f 98 49 77 3e
       0.59013915 3.758135 0.792535 0.24149168
000140 a9 ec 0e 40 bd e0 13 3f 72 db a9 40 00 4b 65 3e
       2.2331946 0.577648 5.3080378 0.22391891
000150 e4 c9 b8 be ee f7 57 bd 53 3f a8 3d 69 a2 8b be
       -0.3609153 -0.05272668 0.08215203 -0.27272347
000160 52 c1 d9 3f 09 9a 2e 40 6b 06 1b bf 79 d0 3f be
       1.7012122 2.7281516 -0.6055667 -0.1873187
000170 cf eb 51 40 aa 34 ad 3f 88 21 a4 be 4f 23 c9 3f
       3.2800176 1.3531697 -0.32056832 1.57139
000180 95 46 f3 3c a8 61 f3 40 72 a9 99 3f a9 7e f1 40
       0.029696742 7.605671 1.2004836 7.5467114
000190 39 21 36 3f ef ce 00 bf 13 c2 25 be ed 0e 23 40
       0.71144444 -0.50315756 -0.16187315 2.547786
0001a0 55 6b 8c 40 b8 7a 39 40 b4 ed 8c 40 c4 a8 0f 41
       4.388102 2.8981152 4.4040165 8.978703
0001b0 52 a3 6c be 77 2c e4 be b5 ac 10 bf 29 26 f9 be
       -0.23109177 -0.44565174 -0.5651353 -0.48661926
0001c0 49 35 c0 be c9 61 98 40 b0 2e b7 be 88 8e 84 be
       -0.37540653 4.7619367 -0.35777807 -0.25889993
0001d0 79 5c bc 3f 5d 9e 8e 40 3c b1 a6 3f 57 21 41 40
       1.471572 4.4568315 1.3022838 3.01766
0001e0 6f 5c d8 40 ee a7 83 3e ca 8c 00 bf ff 50 12 3f
       6.7612834 0.25714058 -0.5021483 0.5715484
0001f0 13 c7 b8 3f 55 eb b9 40 d4 34 28 40 79 1d 95 3f
       1.4435753 5.809977 2.6282244 1.1649619

bn0.running_var f4 [128]
000000 f4 a1 a9 3b 1e 06 81 42 a7 31 55 41 20 e0 8c 42
       0.005176777 64.51195 13.324622 70.437744
000010 76 7f c4 41 96 9d 67 3f 21 e3 bc 41 25 61 53 42
       24.562237 0.9047483 23.610903 52.844868
000020 d1 06 86 41 bf 3b fb 3b a4 ca a0 41 16 48 51 42
       16.753328 0.0076670344 20.098946 52.320396
000030 02 b1 ad 3b c9 b5 10 40 1b 01 f3 41 9d 2e 0d 41
       0.005300642 2.2610953 30.37554 8.82388
000040 e9 e6 87 41 75 c9 5e 42 83 a5 1d 42 7b 80 8a 41
       16.98775 55.696735 39.411633 17.312735
000050 b8 f9 73 41 e5 a4 82 41 0f 1c 13 42 a4 2f b4 42
       15.2484665 16.330515 36.7774 90.09305
000060 ae 53 23 41 9f 70 e4 3f 4a b8 03 43 b2 59 32 3f
       10.20793 1.7846869 131.71988 0.69668114
000070 53 d0 71 42 53 9e 81 42 da eb e5 3b e3 aa 7b 41
       60.45344 64.80923 0.007016641 15.72922
000080 b6 6a 09 3c 2b 3f 76 42 ba ae e0 42 2d e3 7e 42
       0.008387258 61.561687 112.34126 63.72185
000090 1e 31 3c 41 77 17 d2 3b 34 e1 3f 3b 39 7f f9 41
       11.7619915 0.0064114886 0.0029278519 31.18712
0000a0 79 21 db 42 4c fe 2f 41 d6 fb bc 42 46 2a ea 40
       109.56538 10.999584 94.49187 7.3176603
0000b0 78 27 93 3a f9 2c ac 40 82 d2 21 43 8d 50 04 3c
       0.0011226973 5.38049 161.8223 0.008075845
0000c0 39 3c 40 42 4c 41 cb 41 bb 07 90 40 03 31 15 43
       48.05881 25.406883 4.5009437 149.19145
0000d0 dc 37 ec 40 d2 14 88 42 36 14 3c 41 2b 4c a5 42
       7.381819 68.040665 11.754934 82.648766
0000e0 1b 5b 5b 42 ad 4c 7c 41 5e d5 b3 41 96 8b 22 3c
       54.83897 15.76872 22.479183 0.009920975
0000f0 00 fb 95 42 29 4f 82 3b 80 26 48 3c c4 95 9e 40
       74.990234 0.003976722 0.01221621 4.955782
000100 a7 b6 27 42 24 41 0c 42 c1 94 b0 40 4e 91 45 41
       41.92837 35.063614 5.5181584 12.347975
000110 ed 8b 56 42 d2 72 ff 41 1e 64 0d 41 97 94 88 41
       53.636646 31.931065 8.836943 17.072554
000120 b7 92 35 42 c5 a0 18 41 85 d4 d4 41 a8 f1 66 3b
       45.393276 9.53925 26.60377 0.0035239253
000130 eb b1 8c 40 37 d5 68 42 6c f0 f3 40 9a 6f df 40
       4.3967185 58.208218 7.6230984 6.982373
000140 34 72 1a 42 99 2d c8 40 9f 5d 26 42 97 54 b7 40
       38.611526 6.255566 41.591427 5.729076
000150 40 05 5c 3c 89 33 e0 3f 50 ff e5 3f 2e 95 d2 3b
       0.013428986 1.7515727 1.796854 0.006426475
000160 1d f8 95 41 70 5b 73 41 1c a2 b1 3b 90 20 e1 3a
       18.74615 15.209824 0.0054209363 0.0017175842
000170 46 47 19 42 91 b5 5d 41 f5 76 06 3c d9 80 88 41
       38.319603 13.856828 0.0082070725 17.062914
000180 42 80 69 40 70 b9 5b 42 e6 e4 56 41 d8 b0 92 42
       3.6484532 54.93109 13.430883 73.3454
000190 68 b2 96 41 85 c2 e0 3b 81 ec 1d 40 8a 47 8c 42
       18.837112 0.006859126 2.46756 70.139725
0001a0 43 bb 58 42 98 06 85 42 51 0f a0 41 fa 7b df 42
       54.182873 66.51288 20.007479 111.74214
0001b0 0c ab 3c 3e 86 89 9f 3b 98 58 a0 3b 80 7a 16 3b
       0.18424624 0.004868689 0.0048933737 0.00229612
0001c0 56 19 03 3c e7 48 e2 42 df 62 6f 3b aa 62 2f 3b
       0.008001646 113.14239 0.0036527438 0.002676169
0001d0 97 13 c5 41 56 d0 ef 42 98 44 ad 41 9b b7 50 42
       24.634565 119.906906 21.658493 52.179302
0001e0 0f f3 ab 42 74 7f ae 40 28 1f 15 3c 6b 0c 5d 41
       85.974724 5.4530582 0.0091016665 13.815532
0001f0 f3 12 13 42 55 e1 8f 42 92 fa 3d 42 1d 5c cb 41
       36.768505 71.9401 47.494698 25.419977

fc1.weight f4 [128, 128]
000000 66 9d 20 be b4 c2 4c 3d c9 f4 d9 3e 49 00 aa be
       -0.15685043 0.04999037 0.4256957 -0.33203343
000010 9a b9 3f 3e b3 5b cf 3e c1 cd b5 3e d6 db 30 be
       0.18723145 0.40499648 0.3550854 -0.17271361
000020 ab 62 49 be ce 81 2a 3e 33 4c 19 bd 2e 04 49 be
       -0.19666545 0.16651079 -0.037426185 -0.196305
000030 93 58 89 3e 9e cb 65 bd e8 b4 b0 3e 8a ac 17 3e
       0.2682539 -0.056102388 0.3451302 0.14811912
000040 ce 94 26 3d dd e7 3a 3d e6 27 c3 3c 75 8e d7 3d
       0.040669255 0.04563128 0.023822736 0.105252184
000050 28 5e 47 3e 23 5e 53 be f3 e1 24 3e 52 e8 a0 bd
       0.19469512 -0.20641379 0.16101818 -0.078568116
000060 5f 50 6b 3e 79 f2 be 3e 13 d8 ac bd ec 7e 86 bd
       0.22979878 0.37294367 -0.084396504 -0.06567177
000070 1a 55 04 be 5b 71 07 3f 72 f6 6f bb 4f 9a c9 3b
       -0.12923089 0.5290734 -0.0036615399 0.006152428
000080 8e 61 8c be 4c 60 a9 3e 49 54 63 be 18 18 92 be
       -0.27418178 0.3308128 -0.22200121 -0.28534007
000090 7e 24 98 be 10 4f 4d 3e a1 1d 7c be 8e 6b 6a bf
       -0.2971534 0.20049691 -0.24620678 -0.91570365
0000a0 b8 35 de 3e 74 2d 43 be d9 2d a9 bd b2 94 26 3f
       0.4340036 -0.19060308 -0.08260698 0.6507064
0000b0 b6 af 43 3e 19 29 d8 bd b8 cf aa be ee 61 a4 be
       0.19109997 -0.10554714 -0.33361602 -0.32105964
0000c0 b4 ac 82 3e a6 c0 03 bf 5a 06 11 3e 63 3b 05 3f
       0.25522387 -0.51465833 0.14162579 0.5204374
0000d0 0f 94 bc bc 74 1a e4 3d c2 64 ad bc 7b 63 d5 3e
       -0.023019819 0.11137858 -0.02116621 0.4167746
0000e0 36 c5 ef be ef 81 8e be dd f8 99 bd dd 8c 29 3f
       -0.46830148 -0.27833506 -0.0751817 0.66230565
0000f0 e3 21 45 3e 4a 12 13 3f c7 bb 9f bd eb 67 45 3e
       0.19251208 0.5744978 -0.077994876 0.19277923
000100 9b 9c 3d be 69 eb a6 3d a3 fc d4 3e 93 dd 00 3e
       -0.18516771 0.0815037 0.41598997 0.12584524
000110 48 3b aa 3d 5d e2 8f 3d b8 bf 4b 3e d1 2a 50 3e
       0.08312088 0.07025597 0.19897354 0.20328833
000120 40 fd 10 3e cb 30 4d 3e 97 fe 32 bd a9 6d ae 3e
       0.14159107 0.20038144 -0.043699827 0.3406804
000130 1d 2b 20 3e ff db 58 3e ce e2 4b 3e 17 6c 1b 3e
       0.15641446 0.21177672 0.19910738 0.15177952
000140 a0 f6 50 3e 70 7a f6 3e 6b 8c 84 3e 92 a1 4e 3c
       0.2040658 0.48140287 0.2588838 0.012611764
000150 f2 0e d3 3c e7 5d 11 3e e5 6b d3 3d 47 8a 57 be
       0.025763962 0.14195977 0.103233136 -0.21048842
000160 e9 df 98 bd dd b8 f8 3c b6 e0 13 3d 91 8b 40 3e
       -0.074645825 0.030361587 0.036102973 0.1880324
000170 3b c6 4e be 4e 05 5c 3e f6 41 00 3f 99 ea c0 be
       -0.20192806 0.21486399 0.5010065 -0.37678984
000180 b8 e8 e5 3c a8 b5 3f be e3 84 ff bd 45 c1 15 be
       0.02806507 -0.1872164 -0.12476518 -0.14624508
000190 6f 2b 85 3e 9b 8d d4 3e fa 8d 94 3d 09 27 e5 be
       0.260097 0.41514286 0.072536424 -0.44756344
0001a0 ff eb 07 3f 4a eb 56 bd e6 d9 5d bd 48 3e db 3d
       0.53094476 -0.052470483 -0.054162882 0.107052386
0001b0 8a 3c a0 be 05 53 85 3e 4c 6f 48 bd a5 04 b9 bd
       -0.31296188 0.260399 -0.048934266 -0.09034089
0001c0 5c b4 34 3e c8 b0 ab 3e bf d8 a3 3e 59 78 2e 3e
       0.17646927 0.3353331 0.32001302 0.17038096
0001d0 86 80 59 3e e4 70 bc 3e 50 f0 3e 3e 40 7e e5 3d
       0.21240434 0.3680488 0.1864636 0.11205721
0001e0 1e 32 5f 3e 1f f8 cd 3d 47 f0 63 3d be ac 63 3e
       0.21796462 0.10057091 0.05564907 0.22233865
0001f0 a9 6e 5c be 21 1b a1 3e 80 9a 9d be ed e1 6a 3e
       -0.21526588 0.3146601 -0.30781937 0.22937746
000200 20 49 ac bd dc ae af bd b6 c4 dd bd e6 6a 5c be
       -0.08412385 -0.08578274 -0.10828535 -0.21525154
000210 f7 a5 76 3d 5c d5 e7 bd 74 ba d2 3e 5c 59 b0 3b
       0.06021687 -0.11319992 0.41157877 0.005381746
000220 5d 2d 80 3e 33 92 4d 3e 97 73 e7 be 3c e7 9f 3c
       0.2503461 0.20075302 -0.45205376 0.01951944
000230 f7 5b c9 bd ef 49 7d 3e 43 3f 34 3e 3c bd c5 3d
       -0.09831994 0.24735235 0.17602257 0.09655234
000240 a7 2f 88 be 90 24 23 ba 0b 58 80 bc 60 cb 18 be
       -0.26598856 -0.0006223405 -0.015666982 -0.14921331
000250 40 61 32 3e 5b d8 5b 3e cb 5b e0 bd 10 f5 e6 3e
       0.1741991 0.21469252 -0.10955008 0.45108843
000260 f4 43 11 3f c5 58 b2 be 83 07 f9 3c 83 3c 08 be
       0.56744313 -0.3483335 0.03039909 -0.13304333
000270 c4 82 09 be 08 cd b7 be 99 de d1 be 21 4c a0 be
       -0.1342879 -0.35898614 -0.4099014 -0.31308082
000280 e8 32 9a 3b d8 12 99 3e a0 9c 75 3e 02 aa bb bd
       0.0047057755 0.2989719 0.23985529 -0.09163286
000290 fa b0 8d bc 5a e0 00 3e e0 5a 16 3e 63 5c 17 bf
       -0.017296303 0.12585583 0.14683104 -0.59125346
0002a0 8a 91 f9 be f4 16 0f be 46 b5 e4 be 26 38 2e 3c
       -0.4874385 -0.139736 -0.4466955 0.010633504
0002b0 97 54 bf 3d 28 ea 21 3f a8 d4 fe be 65 d3 58 bc
       0.09342306 0.6324792 -0.4977162 -0.013233994
0002c0 e8 ca 9e bd 26 79 8d be e5 59 0a 3e 8b d3 4c 3e
       -0.07753545 -0.2763149 0.13510855 0.20002572
0002d0 2d 49 85 bc a2 4a d9 bc b9 57 8f bd bf 17 a5 3e
       -0.016270244 -0.026524846 -0.06999154 0.3224468
0002e0 15 f5 23 3e be f1 21 3f 4f 34 fb 3d 87 00 35 bd
       0.1601146 0.63259494 0.122658364 -0.044189956
0002f0 38 e0 00 bf 51 da 84 3d 65 8c 18 be c4 fe 2a be
       -0.5034213 0.06486953 -0.14897306 -0.16698748
000300 59 99 05 3d f9 4e cf 3d 2c 6f 57 3d ab 4d 10 bf
       0.032616947 0.10122485 0.052596256 -0.5636851
000310 31 e6 27 3e 90 d6 d4 3d 84 0a 42 bf 25 2c aa be
       0.16396405 0.10392487 -0.75797296 -0.33236805
000320 68 3e b1 be 9e f8 05 3f 95 f3 4e be c1 f0 1d be
       -0.34617925 0.52332485 -0.20210107 -0.15423872
000330 e7 17 2d 3e 39 be 51 be d8 ba 04 3e 23 13 07 bf
       0.1690365 -0.2048272 0.129619 -0.52763575
000340 e8 88 47 bd 26 f0 b2 be 30 51 0e bc 4a 2f 1e be
       -0.04871455 -0.34948844 -0.008686349 -0.15447727
000350 82 20 19 bf e5 e1 dd bd 99 47 50 be c6 cd ce be
       -0.5981523 -0.108341016 -0.20339812 -0.40391368
000360 b9 e2 cf 3e 6e 8a 1b bc ac 1f 1b 3d 77 cf a2 3e
       0.40602663 -0.009493453 0.037872 0.31798908
000370 8d 2c e1 be cd bd 88 3e ce 9c 76 3e a3 52 1d bc
       -0.43979302 0.26707307 0.24083254 -0.009602222
000380 bf a7 4c be 8d 12 29 3e 50 41 0c 3e d3 47 f2 bd
       -0.19985865 0.16510983 0.1369679 -0.11830106
000390 8b 18 85 3e 60 98 d4 3e 17 de 54 3d 1e 8c 07 3f
       0.25995287 0.41522503 0.051969614 0.52948177
0003a0 25 5e ab be b9 78 01 3e 67 ef c9 bb 9c e4 cf 3e
       -0.33470264 0.12643708 -0.006162572 0.40604103
0003b0 a8 82 20 bd bf 78 0c 3e 97 a4 52 3e ec 49 f3 3e
       -0.039187104 0.13717936 0.20570599 0.47517335
0003c0 4f bb a8 3d 05 b4 d5 3d cc fc c7 bd c4 10 75 3e
       0.08238851 0.104347266 -0.09765014 0.23932177
0003d0 37 bc 93 bc d0 8b 01 3f b8 0e 48 be 41 b2 08 3d
       -0.018034084 0.5060396 -0.19536865 0.03337312
0003e0 7c cf f0 3d f5 83 23 3e c9 33 89 bd 8e b4 a2 bd
       0.117583245 0.15968306 -0.0669933 -0.07944594
0003f0 fd da b6 3e 1a 96 ff 3e 08 9f c5 3e 2a f9 34 be
       0.3571395 0.49919206 0.38597894 -0.17673174

fc1.bias f4 [128]
000000 58 a6 a5 be b3 09 44 3e a8 7e c7 be af 88 b5 be
       -0.32353473 0.19144325 -0.3896382 -0.35455844
000010 a0 f4 51 be 76 5e e4 be 90 47 98 be 20 25 fd 3e
       -0.20503473 -0.44603318 -0.29742098 0.49442387
000020 c2 34 91 3c c5 a5 97 3d 8e fc c8 bd 65 1a 3c be
       0.017725352 0.07404665 -0.09813796 -0.18369444
000030 5a dd dc be 00 09 13 bb 53 e9 a2 be e4 f1 43 3e
       -0.43137628 -0.0022435784 -0.31818637 0.19135243
000040 ed cb f0 be 6b cf ae be 76 be 15 bf 69 67 1d bf
       -0.47030583 -0.34142622 -0.58493745 -0.61485916
000050 da aa 14 bf 49 49 a6 be c8 6e 12 3e 33 9b cd bd
       -0.580732 -0.32477787 0.14300072 -0.100393675
000060 16 a1 e3 be c5 18 70 3d fb 03 3f be 35 bb 61 be
       -0.44458836 0.058617372 -0.18653862 -0.2204407
000070 31 0a cc be c0 69 0a bf 26 dd 9c 3e 9d c8 95 3e
       -0.39851525 -0.5406761 0.30637473 0.29254618
000080 f2 28 79 be d7 69 21 be 73 f6 bb bd 66 d6 33 3d
       -0.24332026 -0.15763031 -0.09177866 0.04390564
000090 5d 31 66 bd 0f a8 6e be 00 82 be bd bb 46 c1 bd
       -0.05619942 -0.23306297 -0.09302139 -0.09437319
0000a0 3d b8 ca be d8 01 7f be f0 14 a0 3d f0 a4 73 be
       -0.39593688 -0.24903047 0.078164935 -0.23793387
0000b0 8e fc b9 be 56 9c 2c bf 92 0e ba be fa d6 66 be
       -0.36325496 -0.6742605 -0.3633924 -0.22542945
0000c0 89 63 2f bd 62 33 01 bf bf e0 98 be 48 50 74 be
       -0.042819533 -0.5046903 -0.29858968 -0.2385875
0000d0 7f 05 ef 3c 93 45 fb be 07 87 07 bf 05 3f 51 be
       0.029177425 -0.49076518 -0.5294041 -0.20434196
0000e0 88 ac dd be a6 67 49 be 63 39 66 3e f3 16 03 bf
       -0.43295693 -0.19668445 0.22482829 -0.5120689
0000f0 ea 67 19 be 3b b5 0c be f9 2e 15 bf b1 c6 13 bf
       -0.14981046 -0.13741009 -0.582748 -0.57725054
000100 2f 9b 45 bf 33 31 0e 3e a6 51 00 3c 5c ea db 3d
       -0.77189916 0.13885956 0.0078319665 0.1073806
000110 18 89 85 3e 17 21 01 bf a0 07 f8 be 8f 1b 5b be
       0.26081157 -0.50441116 -0.48443317 -0.21397232
000120 1c b8 72 be 4b 2e a7 3c 2e 0e a7 be 71 9c bd be
       -0.23703045 0.020407816 -0.32628006 -0.37033418
000130 5d 98 3e bf 93 37 7c be e2 e3 12 bf a3 82 98 bd
       -0.7445124 -0.24630575 -0.5737897 -0.07446792
000140 4b e6 3f be 6b da 54 3d e3 ed ee be c1 39 64 3b
       -0.18740194 0.051966112 -0.46665868 0.0034824463
000150 2c 73 bd bd 3b f4 e0 3d 3d b7 1d bf c7 0b 33 be
       -0.09250483 0.10984083 -0.61607724 -0.17484961
000160 0d 27 2f be b0 66 f5 be c9 a5 86 be 0c d7 c8 bd
       -0.1710474 -0.47929907 -0.2629836 -0.09806642
000170 f0 df 3a bf 08 46 92 bd 4e 58 52 be 90 2c ef bc
       -0.7299795 -0.07142264 -0.20541498 -0.029196054
000180 7c 7e 2b bd 70 d3 44 be a8 07 46 3a d8 2f c4 be
       -0.04186867 -0.19221282 0.00075542415 -0.38317752
000190 b8 8a 8a 3e 69 89 76 be 5d 22 8f be db 2d ce be
       0.2705896 -0.24075855 -0.27955905 -0.4026936
0001a0 96 20 96 be 40 f6 c5 bd fa 0d 00 bf b6 f7 2f bf
       -0.29321736 -0.09666109 -0.50021327 -0.6873735
0001b0 78 61 09 bf cb 4b 9d be 07 77 20 be 86 ca 0d be
       -0.5366435 -0.30721888 -0.15670405 -0.13846788
0001c0 5c 8e ce be d0 8c 8d bd ad 4f 05 be 52 e4 10 bf
       -0.40342987 -0.069116235 -0.13018675 -0.5659839
0001d0 27 40 f3 be 69 65 85 be a3 a9 34 bd 94 8b 15 be
       -0.47509882 -0.26053932 -0.04410709 -0.14604026
0001e0 36 f4 91 be fa 9a 45 bd 86 2a ce bd 2b 10 a1 be
       -0.2850663 -0.0482435 -0.100667045 -0.31457648
0001f0 9a 68 88 3d b1 53 c0 be 46 da 21 bf 60 e9 1b 3d
       0.06660576 -0.3756385 -0.63223684 0.03806436

bn1.weight f4 [128]
000000 f7 39 e8 3f dd 28 a8 3f 63 b6 b8 3f d7 9f e3 3f
       1.814269 1.313747 1.443066 1.7783154
000010 5e 96 e7 3f 59 f8 c4 3f 1a 15 0d 40 77 e4 c1 3f
       1.8092763 1.538829 2.204413 1.5147847
000020 e6 97 b2 3f 32 36 cb 3f 0c 21 ce 3f e2 02 07 40
       1.3952606 1.5875914 1.6103835 2.109551
000030 2a f5 c1 3f dd 85 c3 3f 99 2f be 3f 34 63 c9 3f
       1.5152943 1.5275227 1.4858276 1.5733399
000040 be 75 fc 3f 76 07 b3 3f 6c 0f 8b 3f a3 63 90 3f
       1.9723432 1.3986652 1.0864081 1.1280407
000050 ab 7e b7 3f 33 97 bc 3f c4 ff db 3f b9 9f b0 3f
       1.4335531 1.4733642 1.7187428 1.3798743
000060 1a f0 b3 3f 9a 86 f0 3f a5 92 bd 3f 2e b4 d0 3f
       1.4057648 1.8791077 1.4810377 1.6304986
000070 af 8a e1 3f d9 8c 8e 3f bc 92 b1 3f 91 e9 ed 3f
       1.7620448 1.1136733 1.3872905 1.8586904
000080 92 a2 ac 3f 7f 3c c9 3f 9a 88 9f 3f 6f aa b7 3f
       1.3487113 1.5721587 1.2463562 1.4348887
000090 2c 8e 76 3f 65 53 03 40 9b 43 b9 3f b9 f7 e0 3f
       0.9631069 2.051965 1.4473757 1.7575599
0000a0 c3 73 bf 3f ff 30 d8 3f 70 f8 c9 3f 58 ae 8c 3f
       1.4957203 1.6889952 1.5778942 1.0990705
0000b0 42 37 a1 3f 1c d6 c0 3f e6 44 9d 3f 87 96 e2 3f
       1.2594988 1.5065341 1.2286651 1.7702187
0000c0 80 d9 bd 3f 3a 1c c1 3f c6 a5 c2 3f be c2 b7 3f
       1.4832001 1.5086739 1.520684 1.4356306
0000d0 54 30 e6 3f 7d aa c7 3f b9 57 a2 3f 80 01 e2 3f
       1.7983499 1.5598904 1.2683021 1.7656708
0000e0 bc 7b a9 3f 77 7b cd 3f 0b 28 b1 3f d1 f4 8d 3f
       1.3240886 1.6053303 1.3840345 1.1090337
0000f0 b7 90 da 3f 69 c2 c8 3f 5d b9 8c 3f 31 3c 8c 3f
       1.7075413 1.5684329 1.0994068 1.0955869
000100 ba 2d a1 3f 5e a6 08 40 ac 6b a5 3f cc a1 a8 3f
       1.259208 2.1351542 1.2923484 1.3174376
000110 1d f3 c2 3f 61 ba c8 3f 10 29 a2 3f 93 5b fc 3e
       1.5230442 1.5681878 1.2668781 0.49288616
000120 b4 ac e9 3f a7 09 ee 3f 14 09 a3 3f c3 40 a4 3f
       1.825583 1.8596696 1.2737145 1.2832264
000130 34 12 ad 3f 21 b6 bd 3f 2f b5 b8 3f b1 f7 c1 3f
       1.352118 1.4821206 1.4430293 1.5153714
000140 77 91 e1 3f f2 02 f3 3f b3 b4 c3 3f f2 e0 bb 3f
       1.7622517 1.8985274 1.528952 1.4678023
000150 9b 38 d4 3f ec 7d b5 3f 5d 9e ca 3f 50 cc cb 3f
       1.6579775 1.4179053 1.5829579 1.5921726
000160 30 ce e8 3f 53 3c b2 3f ca 02 e4 3f 5c 32 9e 3f
       1.8187923 1.392466 1.7813351 1.2359118
000170 7d f1 ac 3f fb dc f6 3f dc c2 98 3f cd 7e cf 3f
       1.3511196 1.9286188 1.1934466 1.6210572
000180 67 06 d4 3f 05 e9 eb 3f 5d f6 a9 3f 9b 08 c9 3f
       1.6564454 1.8430487 1.3278309 1.5705751
000190 e1 b9 bd 3f f0 eb dd 3f 7e da a7 3f 9c b5 be 3f
       1.4822351 1.7337627 1.3113554 1.4899173
0001a0 78 b9 cc 3f 7b fd a4 3f 50 d4 9f 3f 3a 4f bf 3f
       1.59941 1.2889856 1.2486668 1.4946053
0001b0 32 b5 d9 3f d3 ea a7 3f 86 6c 05 40 83 4a be 3f
       1.7008421 1.3118538 2.0847487 1.4866489
0001c0 99 ae b8 3f 49 a8 8e 3f bc 22 07 40 1d 4f ae 3f
       1.4428283 1.1145107 2.111495 1.3617893
0001d0 59 b2 99 3f 23 7b 9a 3f 44 0e c8 3f c5 28 10 40
       1.2007552 1.2068828 1.5629354 2.2524884
0001e0 13 bc 9d 3f cd 55 08 40 ba b8 af 3f c3 37 4a 3f
       1.2323021 2.1302369 1.3728249 0.78991336
0001f0 d5 65 c4 3f 8e 59 94 3f 0a 7d a7 3f ca 7b 83 3f
       1.5343577 1.158983 1.3085034 1.0272152

bn1.bias f4 [128]
000000 30 d7 6d bf 71 9f 09 3d 38 c9 f6 be 54 e1 b7 bd
       -0.92906475 0.03359932 -0.48200393 -0.08978525
000010 cc 16 88 3f 14 e5 eb be 49 d4 87 be 7b 53 fa be
       1.0631957 -0.4607321 -0.26529148 -0.48891816
000020 81 1b c0 bd 57 e3 79 3e 2d 00 4a 3e 49 50 c4 3e
       -0.09380246 0.2440313 0.1972663 0.38342503
000030 9c 44 37 bf 09 4d ce bd 89 f8 c8 3e c3 94 28 3f
       -0.71589065 -0.10073287 0.39252117 0.6585199
000040 8b 47 4d bf 5f 42 20 3d 7d bc 94 bf 28 ac 2c be
       -0.8018729 0.039125796 -1.1620022 -0.16862547
000050 8f 4c 80 be 95 ed ad be 5a 94 59 3e ca bf 09 be
       -0.2505841 -0.33970323 0.21247998 -0.13452068
000060 8a 8e 98 bc 0d 81 a7 bd 95 c9 1a 3e 95 fb 6e 3f
       -0.018622655 -0.08178911 0.1511596 0.93352634
000070 fb ee 1c be ea fe 82 bf 50 43 1f bf 7f 45 04 3e
       -0.15325539 -1.0234044 -0.62212086 0.12917136
000080 ee 94 1d bf 2c 84 07 bf 42 5c 47 3f 2a 6c 1d 3e
       -0.61555374 -0.52936053 0.7787515 0.15373293
000090 06 63 38 bf 07 27 f0 3e c2 9a 1c bf 42 68 2f 3f
       -0.720261 0.46904776 -0.6117364 0.6851846
0000a0 cd 94 9e bd bd a3 d8 3e 37 19 10 bf 8c ec 84 3e
       -0.07743225 0.42312422 -0.56288475 0.2596172
0000b0 60 30 25 bf 09 62 62 3f f8 e2 28 bf a9 78 3b bf
       -0.6452694 0.8843084 -0.65971327 -0.7323099
0000c0 d1 b0 0e 3f 7b 08 8b 3e 18 ff d7 3e 13 24 ea 3e
       0.5573855 0.27154908 0.4218681 0.45730647
0000d0 e8 5b 46 3d b3 51 ff be b8 5b 30 bf 79 f8 6c 3f
       0.048427492 -0.4986702 -0.6888995 0.9256664
0000e0 f6 d0 56 3e f0 a1 08 3f 98 fc 05 be 5b 18 47 3e
       0.2097815 0.53372097 -0.13084638 0.19442885
0000f0 41 81 97 3f e3 17 5a 3f 96 a9 66 bf 8b 6b 43 3e
       1.183632 0.851927 -0.9010252 0.19083993
000100 16 8f 1f bf 25 b8 26 bd fa bd 4b bf 9c 23 c0 3e
       -0.62327707 -0.040702958 -0.79586756 0.37527168
000110 fe 3b 7b bf 1a 77 50 bf 3f 0d f7 be bb 92 bc 3d
       -0.98138416 -0.81431735 -0.48252293 0.09207674
000120 44 89 05 bf ca 04 a7 3e 8f 32 6a be 65 5f 44 be
       -0.52162576 0.3262084 -0.22870849 -0.19177015
000130 eb 47 1f bf ba 8f 88 bf b7 26 6a bd a1 09 44 3f
       -0.62219113 -1.0668862 -0.057165828 0.7657719
000140 d2 58 20 3f e4 66 26 3f a3 1a 3e bf f7 4d ae 3f
       0.6263553 0.6500075 -0.74259394 1.3617543
000150 4a e0 e4 3e 1f e9 67 3f 13 fc 02 be cb 4e cf 3e
       0.4470237 0.9059009 -0.12791471 0.40489802
000160 43 75 2c 3a c0 21 f0 bb 10 2f 3e 3f 27 db 40 bf
       0.00065787527 -0.007328242 0.7429056 -0.753344
000170 00 6e 35 bf 7b e2 98 3f 48 c3 58 3f 31 bf 7e 3f
       -0.7087097 1.1944116 0.84672976 0.99510485
000180 e3 a5 5c 3f f1 0f 16 3f 3c b2 aa 3f c0 65 89 3e
       0.86190623 0.58618075 1.3335643 0.26835442
000190 7e d1 f0 3e 6a 62 40 3f 39 b6 8b bf e9 4a a7 3a
       0.4703483 0.7515017 -1.0914985 0.0012763414
0001a0 30 d5 36 bf ad 09 61 3f f7 50 34 bf 6a eb e5 be
       -0.7141905 0.8790539 -0.7043604 -0.4490617
0001b0 f3 d9 3a 3f ce d3 e9 bc 69 6b 04 3f 23 aa 5b 3f
       0.72988814 -0.02854338 0.51726395 0.85806483
0001c0 f6 e9 b0 3f 99 85 27 bf 4c 9e 89 bf f1 8f 01 3f
       1.3821399 -0.6543823 -1.0751433 0.5061026
0001d0 c8 e3 d7 3e d9 3f 14 bf 30 23 a7 3f 1f fe 58 3f
       0.4216597 -0.57909924 1.3057613 0.8476276
0001e0 6c 9b aa 3e b3 95 0b 3e dc 2c 73 3f 9a cf 87 bd
       0.33321702 0.13631324 0.94990325 -0.06631394
0001f0 51 e5 0d 3e af 08 bf 3e 65 fe 85 be 2d 30 91 bf
       0.13857009 0.37311313 -0.2617065 -1.1342827

bn1.running_mean f4 [128]
000000 c2 fd 09 40 36 f3 c4 40 c6 77 c6 3e a5 63 08 3f
       2.1561131 6.154689 0.38763255 0.53277045
000010 0d f9 d0 bd b8 21 f2 bd 0c ab d8 bd f0 86 a9 40
       -0.10203753 -0.118228376 -0.105794996 5.297722
000020 eb 24 29 40 29 d7 1d 40 1c 87 57 3f 03 da 73 3f
       2.6428783 2.4662573 0.84190536 0.95254534
000030 e9 c5 07 be 46 25 b2 3e a9 b2 ed bd 3b 82 b4 40
       -0.1325909 0.34794062 -0.11606342 5.6408973
000040 52 08 08 be 83 3f fc 3e 69 0d 0f be cb 00 af 3d
       -0.13284424 0.49267206 -0.1396996 0.08545073
000050 98 ba 0b be 9e c9 c8 bd 8b e4 a6 40 d3 6b c5 bd
       -0.13645399 -0.098040804 5.2153983 -0.096397065
000060 a6 0b a3 3e 1f 68 84 3f 87 e6 8f 40 ff d9 fa 3f
       0.31844825 1.0344275 4.4968905 1.9597777
000070 fc 34 41 bd dc 17 fe bd c1 e3 71 40 ce a4 9a 40
       -0.04716967 -0.124068946 3.779526 4.8326178
000080 32 6d c8 3e 9b 8a b5 bd 38 d9 8a 3d 34 ed 75 3f
       0.3914581 -0.088643275 0.067797124 0.9606507
000090 9b 66 f0 3e 81 bb 65 3f 11 d4 f3 3e 22 03 3e 3f
       0.46953282 0.89739233 0.4762273 0.7422353
0000a0 4d f5 14 40 49 0d c2 bd 4f 8a bb 3f 8f ec b6 bd
       2.327472 -0.0947519 1.4651583 -0.08931839
0000b0 e5 09 06 be 21 7e 0f 3f 8b d9 d8 bd 92 06 f5 bd
       -0.13089712 0.5605183 -0.10588368 -0.11964144
0000c0 36 2e a8 40 44 0b 00 be b2 99 b5 bd 88 cd aa 3d
       5.255641 -0.12504297 -0.08867206 0.08339983
0000d0 d5 76 68 3f 0b b7 c1 bd 26 44 0d be 0e 75 33 3f
       0.90806323 -0.09458741 -0.13795528 0.70100486
0000e0 3e 15 4c 3e e4 89 94 3f e9 0e c4 3f 40 ef 2e 3e
       0.19929978 1.1604581 1.531705 0.17083454
0000f0 31 3d ff 3e e8 b5 c2 40 a0 3e 00 be 2d 62 e2 bd
       0.49851373 6.0847054 -0.1252389 -0.11053882
000100 48 dc 0d be 7d 0f 7d 40 9d f2 63 3e a6 5a d7 3f
       -0.13853562 3.9540703 0.22260518 1.6824539
000110 cf 7a 8a 40 6b 86 03 be 65 ad de bd a3 bc 6c 3e
       4.3274913 -0.12844245 -0.10872916 0.23118834
000120 02 72 e6 bd 29 cd 75 40 b4 ef 08 be 42 9b 00 be
       -0.11252214 3.840647 -0.1337269 -0.12559226
000130 e3 14 fe bd 55 24 b9 3f 7c 14 04 be 53 b4 b4 3f
       -0.124063276 1.4464213 -0.12898439 1.411753
000140 1f dd 02 40 94 73 7f 3f b3 25 51 3e d2 df 26 40
       2.0447462 0.99785733 0.20424537 2.607411
000150 0f 4f 99 3f 4d 8d d6 40 70 3d 03 be a9 c1 6e 40
       1.1977252 6.7047486 -0.12816405 3.73057
000160 ca e8 9b 3e e9 e6 e5 bd 3c 2f 4e 3f 6d 3f 4a 3f
       0.3045104 -0.11225683 0.80540824 0.7900303
000170 fc d0 08 be c8 c9 fa 3f 14 7e 8b 3f 9e 16 c5 3f
       -0.13360971 1.9592829 1.0897851 1.5397527
000180 88 48 8e 40 94 9b b6 bd 08 c9 2e 40 98 ed 85 3e
       4.446354 -0.08916393 2.73102 0.26157832
000190 cf 73 03 41 aa d7 9f 3f 1a 79 bb 3e 86 25 b6 bd
       8.215774 1.248769 0.3661583 -0.08893876
0001a0 ea cd 81 bd 67 61 bd bd 24 2a 04 be 19 f2 18 be
       -0.06338103 -0.09247094 -0.129067 -0.14936103
0001b0 a9 24 f8 bd af c9 fa bd 52 fb b8 3f 84 ff 3e 40
       -0.12116367 -0.12245499 1.4451697 2.9843454
0001c0 49 b2 59 3f a2 a9 64 3f ad 8b c4 bd fa bd 03 be
       0.85037667 0.8932134 -0.095969535 -0.12865439
0001d0 d1 45 05 be df cd d4 bd e3 16 39 3e 9f 13 2e 3f
       -0.13014914 -0.10390829 0.18075137 0.6799869
0001e0 ee 3d a0 3e c5 18 40 3e c2 92 59 3f 3f 82 a2 bd
       0.3129725 0.18759449 0.8498956 -0.07934999
0001f0 8f 5a a7 40 86 13 e3 bd 4a ee 04 be c8 95 8f 40
       5.2298045 -0.11087708 -0.12981525 4.487034

bn1.running_var f4 [128]
000000 1d 7d ac 41 7a 39 9a 41 fb 09 3c 40 5f 3b 00 41
       21.56109 19.278065 2.9381092 8.014495
000010 bb b0 05 3c 6c 3a 03 3c d3 82 2e 3c 81 db b8 41
       0.008159812 0.008009534 0.010651308 23.10718
000020 b2 e9 85 41 c0 21 4c 41 d7 c8 68 40 52 8a 02 40
       16.739109 12.75824 3.6372583 2.0396924
000030 cc 6d 19 3c a3 4d 07 40 2d 3a c7 3b 13 89 03 42
       0.0093645565 2.1141136 0.006079933 32.88386
000040 72 d0 46 3c c0 26 b7 40 20 95 37 3c df ec 5c 3f
       0.012134658 5.72348 0.011204988 0.86298937
000050 96 69 48 3c 64 ee a4 3b 70 d6 9a 41 17 90 2f 3c
       0.012232205 0.005033301 19.354706 0.010715506
000060 65 8f 63 40 6b 7c eb 40 d9 68 1e 42 68 f2 9b 41
       3.555627 7.3589377 39.60239 19.493362
000070 73 84 69 3e 44 62 21 3c e0 d3 87 41 54 62 25 41
       0.22804432 0.0098500885 16.978455 10.336506
000080 b0 96 88 40 a1 aa 3d 3c 2c 9a ca 3e 6f 56 bf 40
       4.2683945 0.011576326 0.3957075 5.979301
000090 3d 06 7a 3f 20 34 cd 40 50 8b 3f 40 17 20 0b 40
       0.9766577 6.412613 2.992878 2.1738336
0000a0 25 4c 50 41 6e dd c4 3b 53 0c 54 40 9f 9f 9f 3b
       13.01859 0.006007842 3.3132522 0.0048713232
0000b0 81 da 2e 3c 32 e9 08 41 a6 05 b4 3b 3f 00 59 3c
       0.010672213 8.556932 0.0054938374 0.013244688
0000c0 8e 24 03 42 c1 0c eb 3b 50 aa 90 3b c3 d1 2b 3f
       32.785698 0.0071731512 0.004414834 0.67116946
0000d0 5c 05 2e 40 7b 5d a4 3b 0d 1a 09 3c fd cd f0 3f
       2.719077 0.0050160266 0.008368027 1.8812863
0000e0 64 85 0b 40 f6 ce 8c 40 58 e2 ac 40 72 11 e5 3f
       2.1800165 4.400264 5.40263 1.7895949
0000f0 f9 af 26 40 d8 37 62 42 9c 2c eb 3b da 07 e3 3b
       2.6044905 56.554535 0.0071769487 0.006928426
000100 69 92 23 3c 7b 57 7e 41 ad 82 95 3f 18 54 89 40
       0.009983637 15.896358 1.1680504 4.2915154
000110 e6 33 63 41 87 32 12 3c 4c 50 07 3c ad eb 13 40
       14.2001705 0.0089231795 0.00825889 2.3112595
000120 e7 10 31 3c 79 fb a5 41 9c ae 29 3c 6a 91 1e 3c
       0.0108072525 20.74779 0.0103565715 0.009678224
000130 3b 3a a1 3c b7 c6 89 41 dd 21 46 3c 31 c7 93 41
       0.019681087 17.222029 0.012093035 18.472261
000140 0a 4b 06 41 be 84 83 40 cb 01 df 3e 69 07 a8 41
       8.39332 4.109954 0.43556055 21.003618
000150 1c 6f 80 41 63 28 65 42 29 f8 23 3c 07 ed b3 41
       16.054253 57.28944 0.010007896 22.490736
000160 da a3 dc 3f 62 8d e3 3b e3 41 23 40 ac 74 0e 41
       1.7237504 0.0069443444 2.5508964 8.903484
000170 cc 1d 3c 3c 06 57 7f 40 98 ab cc 40 5e 4c b9 40
       0.0114817135 3.9896865 6.3959465 5.790572
000180 97 dd b1 41 43 80 d0 3b 4d 57 99 41 8e 0a 43 40
       22.233198 0.0063629462 19.167627 3.0475192
000190 d0 79 43 42 38 78 9a 41 b6 a3 19 40 8c 88 a1 3b
       48.868958 19.3087 2.4006171 0.0049296077
0001a0 ee f8 4d 3b 28 12 8e 3b b1 6a 05 3c 44 c5 3a 3c
       0.0031428891 0.0043356605 0.008143113 0.011399571
0001b0 1e 11 e8 3b 3e 19 2a 3c e7 b5 61 40 7c 39 44 41
       0.0070821187 0.010381995 3.5267274 12.264034
0001c0 f6 41 c1 40 a6 82 af 40 69 e1 c8 3b c7 e8 03 3c
       6.039302 5.4846983 0.0061303866 0.008051104
0001d0 96 c4 10 3c c2 ba a4 3b a6 24 25 3f 20 36 f9 3f
       0.008835932 0.005027146 0.64509046 1.9469643
0001e0 fe c5 27 40 31 b4 a0 3f 39 14 33 40 4c 06 f6 3a
       2.6214595 1.255499 2.7981093 0.0018770187
0001f0 50 11 5f 42 7d 0c b1 3b 24 d0 21 3c 40 15 19 42
       55.766907 0.0054031 0.009876285 38.270752
